saved_models/GAN_3.pth (torch, 813423 bytes, 28 tensors)

embedding.weight f4 [10, 3]
0	0x3f14f2f3	0.5818321
1	0x3fc51ba5	1.5399061
2	0x3e4f1472	0.20222643
3	0xbe387631	-0.18013836
4	0xbf1d403c	-0.6142614
5	0xbf7a7f13	-0.9785015
6	0xbc689512	-0.014195697
7	0x3e6edaba	0.23325625
8	0xbeb46c86	-0.35239047
9	0x3f597816	0.8494886
10	0xbf60e67b	-0.87851685
11	0x3e9fb1b0	0.31190252
12	0xbf7acd75	-0.9796975
13	0x3e5f35ad	0.2179782
14	0x3ee9f0a5	0.4569141
15	0x3f1fc1d0	0.6240511
16	0x3fa2ff1f	1.2734107
17	0x3fed9efb	1.8564142
18	0x3fdd7925	1.7302595
19	0x3f4ea14d	0.80714875
20	0xbf870a57	-1.055003
21	0xbe5eeb5c	-0.2176947
22	0x3e148fd9	0.14507999
23	0xbfe97941	-1.8240129
24	0xbf89f8ce	-1.0779054
25	0xbf1a10df	-0.60181993
26	0x3e9fefae	0.3123755
27	0xbfbeb43e	-1.4898756
28	0x3da96ee2	0.08273102
29	0x3e012ea3	0.12615447

ConvTransp2D.0.weight f4 [6, 24, 4, 4]
0	0x3d468d63	0.04847468
1	0xbcec6095	-0.028854648
2	0xbbc68695	-0.006058524
3	0xbc364bc5	-0.011126463
4	0x3db83e12	0.08996214
5	0x3d9ff162	0.07809712
6	0x3cf1fc7c	0.02953934
7	0xbdbb29a6	-0.09138803
8	0xbd32a77f	-0.043616768
9	0xbc8a90d2	-0.016914759
10	0xbd104cb2	-0.035229392
11	0x3c8747d6	0.016513746
12	0xbb9c74aa	-0.0047746496
13	0x3d3be2b2	0.04587049
14	0xbca8767e	-0.020564314
15	0xbc91c468	-0.01779385
16	0x3d4f142f	0.050556358
17	0x3d0e67b1	0.034766857
18	0x3d032bb5	0.032024104
19	0xbbd44799	-0.0064782617
20	0xbd6e3108	-0.05815223
21	0x3d05f3aa	0.03270308
22	0x3b6ffee5	0.0036620435
23	0xbc853ca2	-0.016264264
24	0xbd293db2	-0.041318603
25	0xbce444f0	-0.027864903
26	0x3bcd3c10	0.0062632635
27	0x3d562519	0.052281473
28	0xbd8ae98b	-0.06782826
29	0x3d876eb6	0.06612913
30	0xbce3d0d2	-0.027809534
31	0xbd83010e	-0.063966855
32	0x3a16dba7	0.00057547766
33	0x3d8713b2	0.065955535
34	0x3cac244f	0.021013407
35	0xbc016641	-0.007897914
36	0x3d083c69	0.033260737
37	0xbd056f49	-0.032576833
38	0x3d017524	0.031605855
39	0xb897d75c	-7.240355e-05
40	0xbd896d45	-0.06710295
41	0xbb768fbd	-0.0037622296
42	0xbd01a019	-0.03164682
43	0xba8650ba	-0.0010247447
44	0x3c175a53	0.009237844
45	0xbd16cfe3	-0.03681935
46	0xbc700d2d	-0.014651579
47	0x3a41792c	0.0007380422
48	0x3d4e781b	0.05040751
49	0xbd01139e	-0.03151285
50	0x3cd4d042	0.025978211
51	0x3d014313	0.031558108
52	0xbbf4494c	-0.0074550267
53	0x3c51ef41	0.01281339
54	0x3d834107	0.06408887
55	0x3b6fc4a3	0.003658571
56	0xbd0c980b	-0.034324687
57	0xbd29cfe1	-0.041458014
58	0xbd6e24f4	-0.05814071
59	0x3c49f16d	0.012325627
60	0x3cd52dec	0.026022874
61	0x3baf04e7	0.0053411606
62	0xbd6df769	-0.058097277
63	0xbc5d4380	-0.013504863
64	0x3c9e2739	0.019305812
65	0xbd72e838	-0.059303492
66	0xbc2d745a	-0.010586822
67	0xbc34c583	-0.011033419
68	0xbd46d8d0	-0.048546612
69	0x3dadfe41	0.08495761
70	0x3d36b44b	0.044605535
71	0xbcaaa74c	-0.020831726
72	0xbc8e1d35	-0.017347911
73	0xbd612a0b	-0.054971736
74	0xbc1bc268	-0.009506799
75	0x3c922085	0.017837772
76	0x3d758be4	0.059947863
77	0x3de63a53	0.11241593
78	0xbce1042e	-0.027467813
79	0xbd70f43d	-0.058826674
80	0xbb3601c1	-0.0027772042
81	0x3d2c5c27	0.04208007
82	0xbcd3774c	-0.025813721
83	0xbd4b44de	-0.049626224
84	0x3d4989ba	0.049203612
85	0xbc0b5023	-0.008502993
86	0x3d92ace8	0.071618855
87	0xbcfc4cff	-0.030798433
88	0xbd34ede4	-0.044172183
89	0x3cf333c7	0.029687775
90	0xbd9e2d2c	-0.077234596
91	0xbd39f7ef	-0.045402464
92	0x3cfa947d	0.030588383
93	0x3d3a8857	0.04554018
94	0x3d438a53	0.047739338
95	0xbbff74af	-0.007795892
96	0x3d964090	0.07336533
97	0x3c453e97	0.012038848
98	0xbb550614	-0.0032504844
99	0x3c093423	0.008374247
100	0xbdaa4fa0	-0.083159685
101	0xbbd21878	-0.0064116083
102	0xbd67dcb5	-0.056606967
103	0x3ab084b1	0.001346728
104	0xbd433515	-0.047658045
105	0xbd149c49	-0.036281858
106	0xbcec2280	-0.028825045
107	0x3c877820	0.016536772
108	0x3d90dee8	0.07073766
109	0x3d037f69	0.03210393
110	0x3ddaebfd	0.106895424
111	0x3d29fd16	0.041501127
112	0x3b718c2a	0.0036857226
113	0xbb6240dd	-0.0034523525
114	0x3d4f5f75	0.050628144
115	0xba0f6488	-0.00054699974
116	0xbcf18886	-0.029484045
117	0xbbc9b991	-0.0061561544
118	0xbd1d1a40	-0.038355112
119	0xbd78cb39	-0.060740683
120	0xbd1a9ab6	-0.0377452
121	0xbab9dcb9	-0.001418016
122	0x3cb29a65	0.021802137
123	0xbc7dd0c8	-0.015491672
124	0xbd23ab33	-0.03995819
125	0x3c594126	0.0132601615
126	0x3d90b2d1	0.070653565
127	0x3d61be37	0.055113044
128	0x3dbe016d	0.09277616
129	0x3bcf0f73	0.0063189804
130	0xbc81720a	-0.015801448
131	0xbd9fc975	-0.07802097
132	0xbd17d230	-0.037065685
133	0x3d088da9	0.033338223
134	0x3d589537	0.052876677
135	0xbbf42c48	-0.007451568
136	0x3ca48c4f	0.020086436
137	0x3c76f3a8	0.015072741
138	0xbd351cc0	-0.04421687
139	0x3ca98a95	0.020695964
140	0xbca9188c	-0.020641588
141	0xbb805c68	-0.0039172657
142	0xba127faa	-0.00055884814
143	0xbda361b4	-0.0797762
144	0xbbc14b17	-0.005898844
145	0xb9bbcb81	-0.00035819042
146	0x3d279d23	0.04092134
147	0xbcd989ff	-0.02655506
148	0xbd42a240	-0.047518015
149	0xbcfe2ae1	-0.031026306
150	0x3d241555	0.040059406
151	0xbd3d701f	-0.046249505
152	0xbcf600c9	-0.030029671
153	0xbd74ef77	-0.059798684
154	0xbd0029e1	-0.03128994
155	0x3cebf664	0.028804012
156	0x3d35dc57	0.044399586
157	0xbce732eb	-0.028222522
158	0x3d83c329	0.06433708
159	0x3c9b767f	0.018977402
160	0xbc0757f7	-0.008260719
161	0xbd65857a	-0.056035496
162	0xbb4f4ac9	-0.0031630269
163	0xbd08a844	-0.033363596
164	0xbd34a091	-0.04409844
165	0x3d88dc71	0.06682671
166	0x3d9585d8	0.07300919
167	0xbd291b01	-0.04128552
168	0x3d206c83	0.039165985
169	0xbd52818b	-0.051393073
170	0xbd1153f6	-0.035480462
171	0xbd133acb	-0.03594474
172	0x3d3833f8	0.044971436
173	0xbdb50044	-0.08837941
174	0xbc53de25	-0.012931381
175	0x3cd95b88	0.026532903
176	0x3c77baf8	0.01512026
177	0xbb5def42	-0.0033864533
178	0x3d2a8406	0.041629814
179	0x3d65b574	0.05608125
180	0xbc14fb17	-0.009093068
181	0xbcc8e85a	-0.024524856
182	0xbd1a74dd	-0.037709106
183	0xbb8c52de	-0.0042823395
184	0xbd818e50	-0.06325972
185	0x3b5f56f1	0.003407892
186	0xbd0b1241	-0.033952955
187	0x3c84e50b	0.016222497
188	0xbda9a22f	-0.08282887
189	0x3bad7b76	0.0052942587
190	0x3cc0137c	0.02344679
191	0x3d166be0	0.03672397
192	0x3d00e033	0.031463813
193	0x3d31eab8	0.043436736
194	0x3c900101	0.017578604
195	0x3d0a4179	0.033753846
196	0xbd07d9a3	-0.03316654
197	0xbcbf38d9	-0.023342537
198	0xbbed2b08	-0.0072377957
199	0x3d940730	0.072279334
200	0xbd6ee4e4	-0.058323756
201	0xbd8c1045	-0.06839041
202	0xbcbff576	-0.023432475
203	0x3d0f440f	0.034977015
204	0x3cb82652	0.02247921
205	0xbcb876e3	-0.022517627
206	0xbda25eb7	-0.07928222
207	0x3cfb32ea	0.030663926
208	0xbbd2be53	-0.00643138
209	0x3d0cdd86	0.03439095
210	0xbc59cf0f	-0.0132939955
211	0xbd712b2b	-0.05887906
212	0xb9f53120	-0.00046766642
213	0x3ce1a132	0.027542684
214	0x3d8854e7	0.06656819
215	0xbd2f787a	-0.042839505
216	0xbd729450	-0.059223473
217	0xbcc7d20c	-0.02439215
218	0x3c4a5a3a	0.012350613
219	0x3c166b10	0.009180799
220	0x3dd13bb0	0.102164626
221	0xbd917648	-0.071026385
222	0x3c645050	0.013935164
223	0x3c5e07e2	0.013551684
224	0xbd7d492e	-0.061837368
225	0xbd3f1b8a	-0.046657123
226	0x3cbe04dc	0.023195677
227	0xbd28fd6f	-0.041257318
228	0xbd06f8f9	-0.032952283
229	0x3cd5db3e	0.02610552
230	0x3d83912b	0.06424173
231	0x3cca2a07	0.024678243
232	0xbd173538	-0.036915988
233	0x3bb2fbdf	0.0054621543
234	0xbba54419	-0.0050435183
235	0x3d213ecc	0.03936653
236	0xbc0f8c73	-0.008761513
237	0xbad55cfa	-0.001627832
238	0xbce1e2db	-0.027573993
239	0xbc60b5b2	-0.013715195
240	0x3d68c973	0.056832742
241	0x3da507b2	0.080581084
242	0xbd364c2c	-0.044506237
243	0xbc159cc5	-0.009131615
244	0x3cd1938e	0.025583055
245	0x3c539b63	0.012915465
246	0x3d818f12	0.063261166
247	0xbd8ad585	-0.06779007
248	0xbd116811	-0.035499636
249	0x3d496ea7	0.049177792
250	0xbd79a630	-0.060949504
251	0xbd9e726b	-0.07736667
252	0x3d29126e	0.04127734
253	0xbd3e97e8	-0.046531588
254	0xbd41c979	-0.04731128
255	0xbb2562cc	-0.002523589

ConvTransp2D.0.bias f4 [24]
0	0x3d52ed49	0.051495824
1	0x3c96ff83	0.018432384
2	0x3d193140	0.037400484
3	0xbcee3632	-0.029078577
4	0x3c90591c	0.017620616
5	0xbcda3620	-0.026637137
6	0xbcd0ec21	-0.02550322
7	0x3d0f27f5	0.034950215
8	0xbc62f8a4	-0.013853226
9	0xbc0f49ba	-0.008745605
10	0x3d30718b	0.043077033
11	0x3d56ea9e	0.052469842
12	0x3c9626d2	0.018329058
13	0xbcdc1fbe	-0.026870605
14	0x3b90c7f1	0.004418366
15	0x3d022703	0.031775486
16	0xbc79c927	-0.015245712
17	0x3c44e459	0.012017333
18	0x3cf467b6	0.02983461
19	0xbcd7e52a	-0.026354391
20	0x3c7fb83a	0.015607888
21	0x3cc6546b	0.024210175
22	0xbc919377	-0.017770512
23	0xbca50343	-0.020143157

ConvTransp2D.1.weight f4 [24]
0	0x3f7dd94d	0.991597
1	0x3f7556fb	0.95835847
2	0x3f78a9f0	0.97134304
3	0x3f82a96a	1.0207951
4	0x3f7cec27	0.9879784
5	0x3f81c8fe	1.0139463
6	0x3f8035e9	1.0016452
7	0x3f85240a	1.0401623
8	0x3f7fa5ac	0.9986217
9	0x3f839050	1.0278416
10	0x3f7e8925	0.99428016
11	0x3f84a1b7	1.0361851
12	0x3f79c879	0.9757152
13	0x3f7e7543	0.9939768
14	0x3f7ae833	0.9801056
15	0x3f848069	1.0351688
16	0x3f87686c	1.0578742
17	0x3f8304d0	1.0235844
18	0x3f7303e3	0.94927806
19	0x3f7da0dd	0.9907358
20	0x3f838a52	1.0276587
21	0x3f874824	1.056889
22	0x3f746974	0.9547341
23	0x3f7ec875	0.99524623

ConvTransp2D.1.bias f4 [24]
0	0x3d1ee8f7	0.03879639
1	0x3d3a48f0	0.045479715
2	0x3cc0691c	0.02348762
3	0xbd20482f	-0.03913134
4	0xbc65bf8d	-0.01402272
5	0x3cc7479c	0.024326138
6	0x3c239d25	0.009986197
7	0x3ba70942	0.005097539
8	0xba0b450d	-0.00053127186
9	0xbcaa9785	-0.020824203
10	0xbcd7c40c	-0.0263386
11	0x3d3afac8	0.04564932
12	0x3c39b1a2	0.011333855
13	0xbccf36af	-0.02529463
14	0xbc47393a	-0.01215964
15	0xbc9c8b79	-0.019109474
16	0xbb2dfbf4	-0.002654788
17	0x3d282ea0	0.04106009
18	0x3c50b963	0.012739512
19	0xbd236981	-0.03989554
20	0x3c6f46b5	0.01460426
21	0x3c21ac0b	0.009867678
22	0xbd6f97b4	-0.058494285
23	0x3d43905a	0.047745086

ConvTransp2D.1.running_mean f4 [24]
0	0x3d3e8c76	0.046520673
1	0x3c88c8a2	0.016697232
2	0x3d18a280	0.037264347
3	0xbd027f66	-0.031859778
4	0x3c94b4c5	0.018152604
5	0xbcd8e1f4	-0.02647493
6	0xbcce1cac	-0.025160156
7	0x3d122082	0.035675533
8	0xbc7b4de0	-0.015338391
9	0xbc4114ad	-0.011784715
10	0x3d2ebb01	0.04265881
11	0x3d59d9f6	0.05318638
12	0x3c8beded	0.017081225
13	0xbce59fe2	-0.02803034
14	0x3b1f50c6	0.002430962
15	0x3d011cd7	0.031521644
16	0xbc8b830e	-0.017030265
17	0x3c2d8c71	0.010592566
18	0x3cdbbab6	0.02682243
19	0xbce48eee	-0.027900185
20	0x3c891a5c	0.016736202
21	0x3cbc651a	0.022997428
22	0xbc9f315a	-0.019432712
23	0xbcaf5959	-0.021404909

ConvTransp2D.1.running_var f4 [24]
0	0x3bd007f6	0.0063486053
1	0x3b9ede5f	0.004848286
2	0x3b9a986b	0.0047178767
3	0x3bb50625	0.005524414
4	0x3b8f99c7	0.0043823454
5	0x3ba35095	0.0049839714
6	0x3bbff556	0.0058581037
7	0x3b92a59f	0.00447531
8	0x3baf8fb1	0.0053577055
9	0x3b9c1dfd	0.004764317
10	0x3bafd6d8	0.0053661875
11	0x3b94bdf9	0.004539248
12	0x3ba5bdc3	0.0050580218
13	0x3b9a1f30	0.004703425
14	0x3b9b2169	0.0047342074
15	0x3bacdf4f	0.005275644
16	0x3b9172ea	0.0044387477
17	0x3b99014a	0.004669343
18	0x3b7134a3	0.0036805056
19	0x3b934a8c	0.0044949707
20	0x3b8a813a	0.004226831
21	0x3b8baf9d	0.004262878
22	0x3ba90990	0.0051586106
23	0x3badceb2	0.005304181

ConvTransp2D.3.weight f4 [24, 12, 4, 4]
0	0xbca70210	-0.020386726
1	0x3d36b2c6	0.044604085
2	0xbc5b6a86	-0.013392096
3	0xbd871f7a	-0.065978006
4	0xbc9ca62b	-0.019122204
5	0xbd3ca2f4	-0.04605384
6	0x3d04230e	0.032259993
7	0x3d3a8a36	0.045541964
8	0x3d30e547	0.043187406
9	0x3d010231	0.03149623
10	0x3d097666	0.03356018
11	0x3da1368f	0.07871734
12	0xbd2a2192	-0.04153592
13	0x3d391f17	0.045195665
14	0xbbcd7da6	-0.006271082
15	0xbd3eb12c	-0.046555683
16	0xbd3e0449	-0.046390805
17	0x3c09170e	0.008367313
18	0xbc84c16a	-0.016205508
19	0x3d8d3415	0.068946995
20	0xbcd7f278	-0.026360735
21	0xbd51a639	-0.051183913
22	0x3997e2d6	0.0002896997
23	0xbd3da037	-0.04629537
24	0x3d0f34d3	0.034962486
25	0x3c4211f4	0.011845101
26	0x3c8ececc	0.017432593
27	0xbd0676ef	-0.032828268
28	0xbc13cdc6	-0.009021228
29	0xbc0b2dff	-0.008494853
30	0x3d4585a3	0.04822315
31	0x3cbae0d1	0.022812279
32	0x3cd5c7e0	0.026096284
33	0x3ccd2dbd	0.025046224
34	0xbde3c064	-0.1112068
35	0xbcf2d53e	-0.029642697
36	0x3c28ae16	0.010295412
37	0xbd4cb4c9	-0.049977098
38	0x3b9d724a	0.004804884
39	0x3d08ba2e	0.03338068
40	0x3b1a79e4	0.0023571188
41	0xbba15f91	-0.0049247225
42	0xbd0d1016	-0.03443917
43	0xbdef276c	-0.11677441
44	0x3ca3d1ff	0.019997595
45	0xbdd7bfc0	-0.1053462
46	0xbca1c9e8	-0.019749597
47	0xbc002c91	-0.007823125
48	0xbbfc010e	-0.0076905554
49	0x3d06303d	0.032760847
50	0x3b1032c4	0.0022002915
51	0x3b532b91	0.0032222013
52	0xbd9324d9	-0.071847625
53	0x3c76cfce	0.015064193
54	0xbe03d6ae	-0.12874863
55	0xbd092dda	-0.033490993
56	0x3b5268df	0.0032105965
57	0x3c0af52d	0.008481306
58	0xbd509cb0	-0.05093068
59	0xbb836233	-0.004009509
60	0xbd18f034	-0.03733845
61	0x3d2fa4bc	0.042881712
62	0xbdbaf8a4	-0.09129456
63	0xbd5f5d43	-0.0545323
64	0x3cbe9691	0.023265155
65	0x3c7f9a11	0.015600697
66	0x3b99e49e	0.0046964427
67	0x3d1e031d	0.038577188
68	0x3d8aa62c	0.06769976
69	0xbdacdfa0	-0.084410906
70	0xbd884d02	-0.06655313
71	0x3c838c84	0.016058214
72	0x3cfb47bc	0.030673854
73	0x3cdfcaba	0.027318347
74	0x3d5e3080	0.054245472
75	0x3c5fb171	0.013653145
76	0xbd6a28fb	-0.05716799
77	0xbd813f93	-0.06310954
78	0xbd93a70e	-0.072095975
79	0x3b66e3ef	0.0035231074
80	0xbd25affd	-0.04045104
81	0xbc1a151a	-0.009404445
82	0x3c6ea518	0.014565729
83	0x3d230360	0.03979814
84	0x3de93971	0.11387909
85	0x3c0f0844	0.008729998
86	0x3d14c713	0.036322664
87	0xbccf40cd	-0.025299454
88	0xbd500206	-0.05078318
89	0x3d19f973	0.03759141
90	0xbc6ae496	-0.014336726
91	0x3cd023fe	0.025407787
92	0x3a927efa	0.0011176758
93	0xbcc2b0ac	-0.023765884
94	0xbd613ca9	-0.05498949
95	0xbd2294ae	-0.039692573
96	0x3c929971	0.017895432
97	0x3cbe5cd4	0.023237623
98	0xbc383a90	-0.011244431
99	0xbcc45866	-0.023967933
100	0x3d11e85d	0.03562199
101	0x3c70b145	0.014690702
102	0x3d132d69	0.03593198
103	0xbb56fcec	-0.0032804562
104	0x3bbefbf5	0.0058283755
105	0xbd3f7133	-0.046738815
106	0x3c33c75d	0.010972825
107	0xbcbe1af7	-0.023206217
108	0xbdd7e4d5	-0.10541693
109	0xbd6fdcce	-0.058560185
110	0xbd4cdfb0	-0.050018013
111	0x3b9e813e	0.004837184
112	0x3cf636cb	0.030055424
113	0xbc994d58	-0.018713638
114	0x3cdbf8c3	0.026852017
115	0xbc2b44d4	-0.010453422
116	0xbd1ab5df	-0.037771102
117	0xbd45ab04	-0.048258796
118	0xbd1b1269	-0.037859354
119	0x3bbfca5e	0.0058529815
120	0xbc3d2c20	-0.011546165
121	0x3cb52fea	0.022117574
122	0x3b305318	0.0026904996
123	0x3c03bb61	0.00804028
124	0xbd04fe68	-0.032469183
125	0xbc928267	-0.017884446
126	0x3cc5d5a0	0.024149716
127	0x3d158d25	0.03651156
128	0x3cb84db5	0.022497991
129	0xbc51d506	-0.012807136
130	0xbd0ae6a4	-0.033911362
131	0x3bc6eba7	0.0060705724
132	0xbcdbe5be	-0.026842948
133	0xbc524f11	-0.012836234
134	0x3d4d0af4	0.050059274
135	0xbdc0b344	-0.09409192
136	0x3d22a280	0.039705753
137	0xbc2c0a84	-0.010500554
138	0x3d404783	0.0469432
139	0x3c6b7a7b	0.014372463
140	0x3d048672	0.03235478
141	0x3ca66e87	0.020316375
142	0xbc61d05d	-0.013782588
143	0xbd206dd4	-0.03916724
144	0xbd4a8fb5	-0.049453456
145	0x3bc0cb16	0.0058835847
146	0x3c9e094a	0.019291539
147	0x3ad9f2bc	0.0016628127
148	0x3d611d26	0.05495944
149	0x3c0b39d4	0.008497674
150	0x3d2ffba5	0.042964596
151	0xbd6567c7	-0.056007173
152	0x3da73c5e	0.08165811
153	0xbd8236e3	-0.06358125
154	0xbda3c9a4	-0.07997444
155	0xbd6349d8	-0.055490345
156	0x3a10cc98	0.0005523651
157	0x3ced827d	0.028992886
158	0x3c9cf276	0.019158583
159	0xbc3c0ff5	-0.011478414
160	0x3d43647b	0.047703248
161	0xbcf49d2b	-0.0298601
162	0x3c25216c	0.010078769
163	0x3cdc7c28	0.026914671
164	0xbd0a3205	-0.03373911
165	0x3cd93d20	0.026518404
166	0xbbcec653	-0.006310263
167	0xbddbb3cd	-0.10727654
168	0x3adaca64	0.0016692397
169	0x3c9c929d	0.01911288
170	0xbc507fa4	-0.012725744
171	0xbc35e6fc	-0.011102434
172	0x3d922521	0.07135988
173	0xbc33af21	-0.010967047
174	0x3caa8f07	0.020820154
175	0xbc6c1537	-0.014409355
176	0x3d94af8a	0.07260044
177	0xbd5de89b	-0.054176908
178	0xbd25cc7b	-0.04047821
179	0xbd21ddad	-0.039518047
180	0xbb8bb697	-0.0042637098
181	0xbd792e48	-0.060835153
182	0xbd8d7b7f	-0.06908321
183	0x399acdd9	0.00029526537
184	0x3ce4cd70	0.027929991
185	0x3ca25fc1	0.01982105
186	0x3cf1a16a	0.029495914
187	0x3c696136	0.014244368
188	0x3dc5f34d	0.096655466
189	0x3ceac42d	0.028657997
190	0x3d648d32	0.055798717
191	0xbb263edc	-0.0025367057
192	0x3d8ef729	0.06980736
193	0x3cc8ead6	0.024526041
194	0x3d2c64b3	0.04208822
195	0xbb1401b6	-0.0022584028
196	0x3d0eed58	0.034894317
197	0x3d4f7016	0.050644003
198	0xbccd9f44	-0.025100358
199	0xbce020a3	-0.027359312
200	0x3d858bfe	0.06520842
201	0xbc72b382	-0.014813306
202	0xbd4c118e	-0.04982143
203	0x3ca3c99e	0.0199936
204	0xbd729d79	-0.05923221
205	0xbcdaabd9	-0.026693271
206	0x3d287551	0.041127507
207	0xbc1887c8	-0.0093097165
208	0xbcd67895	-0.026180545
209	0x3cbb3e83	0.022856956
210	0xbd13e980	-0.036111355
211	0xbd484007	-0.048889186
212	0xbd2fb50c	-0.04289727
213	0x3ba0a173	0.0049020587
214	0xbd4ed4c3	-0.050495874
215	0xbbbe9255	-0.005815784
216	0xbb813bce	-0.003943897
217	0x3c989897	0.018627448
218	0xbcf40dee	-0.029791798
219	0xbd3e332d	-0.046435524
220	0x3cf19e75	0.029494504
221	0xbcf6c8dc	-0.030125074
222	0x3d050ac3	0.032480966
223	0x3c2a0abf	0.010378539
224	0x3d00b08b	0.031418364
225	0x3da01e00	0.07818222
226	0xbc6d8dc0	-0.014499128
227	0x3ba0276f	0.0048875134
228	0xbd60b8b0	-0.05486363
229	0x3c3cb70e	0.011518253
230	0xbcdfe262	-0.027329627
231	0xbcee8887	-0.029117836
232	0x3d70e45f	0.05881154
233	0xbcf0b53f	-0.0293833
234	0x3d9f4bb6	0.077781126
235	0xbd8ab123	-0.067720674
236	0x3d8be83b	0.06831404
237	0xbcd23f4f	-0.025664954
238	0xba868949	-0.0010264303
239	0x3ce8d9a8	0.0284241
240	0x3d8a6a78	0.067585886
241	0x3d3677eb	0.044547956
242	0x3a78ff34	0.00094984774
243	0x3ba7c6f2	0.0051201517
244	0x3d0ebd41	0.034848455
245	0xbae1c95d	-0.0017226149
246	0x3d062534	0.032750323
247	0x3c83ef19	0.016105222
248	0xbd1a2e42	-0.03764177
249	0x3d25315c	0.040330276
250	0xbd75fff3	-0.060058545
251	0x3d339eb2	0.043852516
252	0xbddf824b	-0.10913523
253	0x3cbc33bf	0.022973893
254	0x3c9d19e4	0.019177385
255	0xbd85fce7	-0.06542378

ConvTransp2D.3.bias f4 [12]
0	0x3d880d08	0.066431105
1	0x3d1b1ff0	0.037872255
2	0x3d8382ac	0.06421408
3	0xbd205867	-0.039146807
4	0x3cffb929	0.03121622
5	0xbd3752d2	-0.044756718
6	0x3c82bdf0	0.01595971
7	0xbd1fa17e	-0.03897237
8	0xbd965782	-0.073409095
9	0xbd920247	-0.071293406
10	0xbc51eefb	-0.012813325
11	0x3d444751	0.047919575

ConvTransp2D.4.weight f4 [12]
0	0x3f7ed58d	0.995446
1	0x3f6ff5c4	0.93734384
2	0x3f8140c5	1.0097891
3	0x3f84175b	1.0319628
4	0x3f791c79	0.9730907
5	0x3f82ef81	1.0229341
6	0x3f865d45	1.0497214
7	0x3f7b6d78	0.9821391
8	0x3f80b8c7	1.005639
9	0x3f7d4a2d	0.9894131
10	0x3f80470d	1.0021683
11	0x3f77a981	0.9674302

ConvTransp2D.4.bias f4 [12]
0	0xbe0fcb1b	-0.14042322
1	0xbe0c4652	-0.136987
2	0xbc7d61e9	-0.015465238
3	0x3aa5c36c	0.0012646741
4	0xbd8da2f2	-0.06915845
5	0xbde9bb4f	-0.114126794
6	0xbc5b9253	-0.013401586
7	0xbd96c285	-0.073613204
8	0x3aeb0b03	0.0017932359
9	0xbe167359	-0.14692439
10	0xbe162fdf	-0.14666699
11	0xbdcebb8d	-0.10094366

ConvTransp2D.4.running_mean f4 [12]
0	0x3d409896	0.047020517
1	0x3d194cf8	0.03742692
2	0x3c3f2114	0.011665601
3	0xbe12c364	-0.14332348
4	0x3c817dff	0.01580715
5	0xbe05bdec	-0.1306073
6	0x3c17a698	0.009256028
7	0x3c1f176b	0.009710173
8	0xbd6912a9	-0.05690256
9	0xbe1f8514	-0.15578109
10	0xbdd401c7	-0.103519015
11	0xbbcd9091	-0.006273337

ConvTransp2D.4.running_var f4 [12]
0	0x3d3c3327	0.04594722
1	0x3d2a8e77	0.04163977
2	0x3d566d78	0.05235049
3	0x3d8201be	0.063479885
4	0x3d26339c	0.040576562
5	0x3d1df9be	0.03856825
6	0x3d0fba6f	0.035089906
7	0x3d1eedb9	0.03880093
8	0x3d17714c	0.036973283
9	0x3d238a9c	0.03992711
10	0x3d11f491	0.035633627
11	0x3d2baef2	0.041914888

ConvTransp2D.6.weight f4 [12, 6, 4, 4]
0	0xbd8b4ccf	-0.068017595
1	0x3d067b10	0.032832205
2	0x3ce6be64	0.028166957
3	0x3d51c418	0.0512124
4	0xbd068cbb	-0.032849055
5	0xbd97fdfe	-0.07421492
6	0x3c540bcb	0.012942265
7	0xb8bc3f51	-8.976332e-05
8	0xbe319f7a	-0.17345992
9	0xbc5a0b09	-0.013308295
10	0xbd0b92d1	-0.034075562
11	0xba30f40f	-0.0006750235
12	0xbce7a122	-0.028275076
13	0xbe10195f	-0.14072178
14	0xbda35d2c	-0.079767555
15	0x3ca78d4d	0.02045312
16	0x3c81eabe	0.015859004
17	0xbc2cb75a	-0.010541761
18	0xbc909fd2	-0.017654333
19	0x3cbd1946	0.02308334
20	0xbcc33fef	-0.023834197
21	0xbbf8b67f	-0.0075901146
22	0xbcb17dac	-0.02166637
23	0x3cb5a642	0.022174004
24	0xbc81c432	-0.015840624
25	0xbcf060ec	-0.029343091
26	0xbd24f9af	-0.04027718
27	0x3cb6907d	0.022285694
28	0xbda8d706	-0.082441375
29	0xbc24c6a3	-0.010057124
30	0xbd46f963	-0.048577677
31	0xbd1ef07e	-0.03880357
32	0x3cef2055	0.029190222
33	0xbbd09852	-0.0063658142
34	0x3db0d7a1	0.08634878
35	0x3d966886	0.07344155
36	0x3d21031f	0.039309617
37	0x3d83d8a9	0.06437809
38	0x3d20e024	0.039276257
39	0x3dc75d61	0.097346075
40	0x3c61c839	0.013780647
41	0x3d9af960	0.07567096
42	0xba9e2d99	-0.0012068033
43	0x3d537248	0.05162266
44	0x3d6a1c1f	0.057155725
45	0x3ddaafbc	0.1067805
46	0x3c4d3d04	0.012526754
47	0x3d5bc727	0.053656723
48	0x3d2bdec2	0.041960485
49	0x3d1d65a6	0.038427018
50	0xbcaf75a5	-0.021418402
51	0xbd71a55f	-0.0589956
52	0xbdad217a	-0.08453651
53	0xbd65752a	-0.05601994
54	0x3c879b9b	0.01655369
55	0xbd4c3177	-0.04985186
56	0xbdffa572	-0.12482728
57	0xbcf5607e	-0.029953238
58	0xbd472f45	-0.048629064
59	0xbd603e74	-0.05474706
60	0xbb391ccc	-0.0028245924
61	0xbcbc6e10	-0.0230017
62	0x3c9118dd	0.017712051
63	0xbd7bf0f7	-0.0615091
64	0x3d2d6139	0.042329047
65	0xbcc179da	-0.023617674
66	0xbcb0edd3	-0.021597778
67	0xbd2c3c71	-0.04204983
68	0x3c03ade1	0.008037061
69	0xbc592aeb	-0.013254861
70	0x3d187a6d	0.03722613
71	0xbd8bb447	-0.068214945
72	0x3ccd43e7	0.025056792
73	0x3c264497	0.010148189
74	0xbd18c096	-0.03729304
75	0xbd6c07fb	-0.0576248
76	0xbc0923e1	-0.008370371
77	0x3b028234	0.0019914033
78	0xbc07e1f7	-0.00829362
79	0x3c27c680	0.010240197
80	0x3c92683b	0.017871967
81	0x3d934cef	0.07192408
82	0x3d89e7e3	0.06733682
83	0x3ddfe2e4	0.10931948
84	0x3d9aae41	0.075527675
85	0x3dbda901	0.092607506
86	0x3dde51b4	0.108554274
87	0x3d9d8ce0	0.076928854
88	0x3ceded2a	0.029043753
89	0x3de09a9b	0.10966989
90	0x3d9730ff	0.07382392
91	0x3da16f84	0.07882598
92	0x3dcd091b	0.10011502
93	0x3dbec8cd	0.093156435
94	0x3d95400b	0.07287606
95	0x3d36abb3	0.04459734
96	0x3b92c114	0.004478583
97	0xbd946dd0	-0.072475076
98	0xbe309bf4	-0.17246991
99	0xbd2d09b6	-0.04224559
100	0x3cd5f740	0.026118875
101	0xbd114695	-0.035467703
102	0xbc366fa8	-0.011135019
103	0xbdbcfe92	-0.09228243
104	0x3d8192bd	0.06326816
105	0x3d10251d	0.035191644
106	0xbdf59560	-0.11991382
107	0xbcc6d003	-0.02426911
108	0xbd69daf2	-0.05709357
109	0xbc50c4d1	-0.012742237
110	0xbc2c6e9d	-0.010524419
111	0xbd93a1fd	-0.07208631
112	0xbd776665	-0.060400385
113	0x3d822da3	0.06356361
114	0x3cbb5c56	0.022871178
115	0x3d6a74f1	0.05724043
116	0xbd76fa22	-0.06029714
117	0x3d32d336	0.043658458
118	0x3db09b03	0.08623316
119	0x3c86d31c	0.016458087
120	0x3da7de68	0.081967175
121	0x3c0e34c5	0.008679573
122	0x3ce3ae3f	0.027793048
123	0x3de81912	0.11332907
124	0x3d902090	0.07037461
125	0x3d0564e1	0.03256691
126	0x3de5e4fe	0.112253174
127	0x3dd659da	0.104663566
128	0xbcc80ca5	-0.024420092
129	0xbd7c153a	-0.06154368
130	0x3c5723b8	0.013131075
131	0x3c84df8f	0.016219882
132	0xbd00353c	-0.03130077
133	0xbd30847b	-0.043095093
134	0x3c8ec26c	0.017426692
135	0x3c52b47c	0.012860414
136	0x3c86db8b	0.016462108
137	0x3c935e53	0.017989313
138	0xbcaa63ac	-0.02079948
139	0x3db6add8	0.08919877
140	0x3a765207	0.00093963783
141	0x3d0d20e2	0.034455188
142	0x3daf784c	0.08567867
143	0x3dcff5b2	0.101542845
144	0xbd18ed33	-0.037335586
145	0xbcdc6fe2	-0.026908819
146	0x3d1f2fcb	0.03886394
147	0x3d937987	0.07200914
148	0xbbf5cf62	-0.0075015286
149	0x3d681def	0.056669172
150	0xbbb0af1a	-0.0053919675
151	0x3c2f2e23	0.010692152
152	0x3c5827d9	0.013193094
153	0x3d5891ee	0.052873544
154	0x3dfeab20	0.12434983
155	0x3d192e9b	0.037397962
156	0x3d13568f	0.03597122
157	0x3d18e8ec	0.037331507
158	0x3d56b22d	0.052416015
159	0x3d42389a	0.04741726
160	0x3ca1ecf6	0.019766312
161	0x3cdbf0fc	0.026848309
162	0x3ce8a512	0.028399024
163	0x3ce01249	0.027352469
164	0xbe1da10f	-0.1539347
165	0x3cc2e2fa	0.023789871
166	0xbca3110e	-0.019905593
167	0xbc6e63ec	-0.01455019
168	0x3cebac44	0.028768666
169	0x3c54afcf	0.012981369
170	0x3d1042c7	0.035219934
171	0x3d097ce7	0.03356638
172	0x3c8c12d8	0.01709883
173	0x3d9e5832	0.07731666
174	0x3da1e796	0.079055
175	0xbd5a2c72	-0.053265043
176	0xbd192146	-0.037385248
177	0xbd95d886	-0.07316689
178	0xbd3df8f1	-0.046379987
179	0xbcb446b9	-0.02200638
180	0xbced082d	-0.028934563
181	0xbd70570b	-0.05867676
182	0xbceaf32e	-0.02868041
183	0xbc288fe1	-0.01028821
184	0xbd1bd348	-0.03804329
185	0xbd0233ec	-0.031787798
186	0xbc0f3998	-0.008741759
187	0x3c4b0eaa	0.012393633
188	0xbc208cec	-0.009799223
189	0x3cd2e011	0.025741609
190	0x3d32595e	0.04354226
191	0x3d8951ea	0.06705077
192	0x3d4ccb35	0.04999848
193	0x3da9f137	0.08297961
194	0xbb99d7f0	-0.004694931
195	0xbcdbad6b	-0.02681609
196	0xbd86ecf5	-0.06588165
197	0x3d2caad3	0.0421551
198	0xbc8a8a67	-0.016911699
199	0x3d4baac3	0.049723398
200	0x3c4a7a97	0.012358329
201	0x3cb5def2	0.022201035
202	0x3ccd1126	0.025032591
203	0xbc5cd1bf	-0.013477742
204	0xbd04a826	-0.03238692
205	0x3dd0c55e	0.10193895
206	0xbd5ed95b	-0.054406505
207	0x3d6bebc4	0.05759789
208	0x3c50c2b1	0.012741731
209	0x3db21667	0.08695679
210	0xbcddbb3b	-0.027066818
211	0x3d92bdbb	0.071650945
212	0xbb9cc643	-0.004784377
213	0xbb655bf0	-0.0034997426
214	0x3c6ef636	0.014585068
215	0xbda10ca9	-0.07863743
216	0x3db5ed9a	0.088832095
217	0x3d569f84	0.05239822
218	0x3cf87147	0.030327452
219	0xbbc35b57	-0.0059618163
220	0xbced3bcc	-0.028959177
221	0xbd41e6eb	-0.04733936
222	0xbd2f0f4c	-0.042739198
223	0xbd0653cc	-0.03279476
224	0x3b82b428	0.0039887615
225	0xbd289d37	-0.041165557
226	0xbd933dee	-0.071895465
227	0xbdcb9e7b	-0.09942337
228	0xbd4431ef	-0.047899183
229	0xbc86061b	-0.016360333
230	0xbd6e55c4	-0.05818726
231	0xbdda4565	-0.10657767
232	0xbca4cb1a	-0.020116378
233	0x3c8f8196	0.017517846
234	0xbd5e6a17	-0.054300394
235	0xbd723d81	-0.059140686
236	0x3c8f138f	0.017465381
237	0xbd1048dc	-0.035225734
238	0xbc0507d9	-0.008119547
239	0xbcd2237f	-0.025651691
240	0x3d774dc9	0.060376916
241	0x3d78719f	0.060655233
242	0x3cc3266b	0.02382203
243	0x3b60dfea	0.003431315
244	0x3d413d97	0.047177877
245	0x3cde8a64	0.0271656
246	0x3d570eb9	0.052504275
247	0x3d4e2861	0.050331477
248	0xbcc5c2f5	-0.024140814
249	0x3cd641f1	0.02615449
250	0xbb11399f	-0.002215959
251	0x3d4d8975	0.050179917
252	0x3dd0cb94	0.101950794
253	0x3c5e4ebf	0.013568579
254	0xbd6340de	-0.055481784
255	0x3ccd0b5a	0.025029827

ConvTransp2D.6.bias f4 [6]
0	0x3dc087ac	0.09400877
1	0xbd12e97f	-0.03586721
2	0xbc69cacb	-0.014269541
3	0x3ce3e76b	0.02782031
4	0xbd898350	-0.06714499
5	0xbd2b7473	-0.0418591

ConvTransp2D.7.weight f4 [6]
0	0x3f98e5d6	1.194514
1	0x3f8fa960	1.1223564
2	0x3fa12341	1.2588884
3	0x3f98000d	1.1875015
4	0x3fa45bc8	1.284051
5	0x3fbc8e75	1.4730974

ConvTransp2D.7.bias f4 [6]
0	0x3dff1c39	0.12456555
1	0x3d1853e8	0.037189394
2	0xbdcbed6b	-0.09957393
3	0x3e078a1f	0.13236283
4	0xbe1027b5	-0.14077647
5	0xbd0b91b1	-0.03407449

ConvTransp2D.7.running_mean f4 [6]
0	0xba7902ee	-0.0009499033
1	0xbddea3e7	-0.10871106
2	0xbe38c646	-0.18044385
3	0xbe1822c2	-0.14857009
4	0xbdb2f695	-0.08738438
5	0xbe204b7c	-0.15653795

ConvTransp2D.7.running_var f4 [6]
0	0x3d005f56	0.03134092
1	0x3d1bf747	0.03807762
2	0x3cd92c13	0.026510274
3	0x3d573ea5	0.052549977
4	0x3ccc3ad7	0.0249304
5	0x3cba9ed1	0.022780808

ConvTransp2D.9.weight f4 [6, 1, 7, 7]
0	0x3cab2fa7	0.020896746
1	0xbcc47e8b	-0.023986122
2	0xbdb3e4ef	-0.087839
3	0xbda783c7	-0.081794314
4	0xbbca4947	-0.006173286
5	0x3d70456b	0.058659952
6	0x3d8cef96	0.06881635
7	0xbc0073b3	-0.007840085
8	0xbdaed93d	-0.08537529
9	0xbe529fc5	-0.2056876
10	0xbe2898c2	-0.16464522
11	0x3c2ecb92	0.010668652
12	0x3e1b913b	0.1519212
13	0x3de0404d	0.109497644
14	0xbd8fa85e	-0.07014535
15	0xbe28410c	-0.16431063
16	0xbe53ab68	-0.20670855
17	0xbdf58f07	-0.11990171
18	0x3da362eb	0.079778515
19	0x3e44f252	0.19233063
20	0x3dcc40e2	0.09973313
21	0xbd53a573	-0.051671457
22	0xbdf48943	-0.11940243
23	0xbdfcc42c	-0.12342104
24	0xbcb1c588	-0.021700636
25	0x3e3b4fb6	0.18292126
26	0x3e5d1b73	0.21592502
27	0x3db33d9c	0.087519854
28	0xbd10366a	-0.035208143
29	0xbd0b855c	-0.03406273
30	0x3d18b9d0	0.03728658
31	0x3dfed63f	0.12443208
32	0x3e8f99a5	0.2804691
33	0x3e7d2160	0.24719763
34	0x3d9f0f08	0.07766539
35	0xbb6f3a7d	-0.0036503368
36	0x3d37dd12	0.044888563
37	0x3de5801f	0.11206078
38	0x3e542b59	0.20719661
39	0x3e889845	0.26678672
40	0x3e472d14	0.1945079
41	0x3d9fe93e	0.07808159
42	0x3c47c747	0.0121935075
43	0x3d842211	0.0645181
44	0x3da4256f	0.080149524
45	0x3ddf7268	0.10910493
46	0x3dfaa40f	0.12238323
47	0x3d84ff3d	0.06493995
48	0x3c818722	0.015811507
49	0x3d075e84	0.03304912
50	0x3cdb7139	0.026787387
51	0x3d90d0ca	0.07071073
52	0x3dc5bc0a	0.09655006
53	0x3dbf5351	0.09342063
54	0x3d91ea83	0.07124808
55	0x3c0a49d0	0.00844045
56	0x3c8cd93c	0.01719343
57	0x3d90fd27	0.07079535
58	0x3e15c0b8	0.14624298
59	0x3e7443ad	0.23853941
60	0x3e8515a8	0.25993085
61	0x3e4e6b53	0.20158128
62	0x3de73e66	0.112911984
63	0x3d25e293	0.04049928
64	0x3df3bc87	0.11901193
65	0x3e60953a	0.21931925
66	0x3e85a539	0.26102617
67	0x3e8b6733	0.27227172
68	0x3e44eebd	0.19231696
69	0x3de0872d	0.10963283
70	0x3d504f54	0.050856903
71	0x3dc7395b	0.097277366
72	0x3e0591df	0.13043927
73	0x3e1ec328	0.15504134
74	0x3d9e7916	0.07737939
75	0x3be81ba1	0.0070833717
76	0x3d094bf6	0.033519708
77	0xbc008b3a	-0.007845694
78	0xb9d78f19	-0.00041114612
79	0x39ec0eba	0.000450244
80	0xbd4a4143	-0.049378645
81	0xbdf9a74d	-0.12190113
82	0xbdee4724	-0.11634663
83	0xbd103cd3	-0.035214256
84	0xbd5557fb	-0.052085858
85	0xbd67b918	-0.056573004
86	0xbd8ae27e	-0.06781481
87	0xbda5f8fd	-0.08104131
88	0xbe065824	-0.1311956
89	0xbd68639f	-0.05673563
90	0x3c1c3031	0.009532974
91	0xbcd0a433	-0.025468921
92	0xbd3755cf	-0.044759568
93	0xbc12c35c	-0.00895771
94	0xbcf73940	-0.030178666
95	0xbd4c34db	-0.049855094
96	0x3c542475	0.012948145
97	0x3bc0623a	0.0058710845
98	0x3c477ba0	0.012175471
99	0x3c3d5f3a	0.011558348
100	0xbc9602a6	-0.01831181
101	0x3cf8fb76	0.030393343
102	0x3e0a6cdb	0.13518088
103	0x3e2bcfe4	0.16778523
104	0x3db73818	0.08946246
105	0xbb6fc49b	-0.0036585692
106	0xbd08d4cc	-0.033406064
107	0xbda395d9	-0.079875655
108	0xbe206266	-0.15662536
109	0xbd426056	-0.047455154
110	0x3d01f095	0.031723578
111	0x3ca91933	0.020641899
112	0xbcfaf3db	-0.030633857
113	0xbdc62740	-0.09675455
114	0xbe34f399	-0.1767105
115	0xbeb7fbca	-0.35934287
116	0xbeeb85e8	-0.460006
117	0xbe9edf05	-0.31029525
118	0xbe0b1c3b	-0.13584988
119	0xbc9d8aa5	-0.01923115
120	0xbc318277	-0.010834328
121	0xbdd9f2ee	-0.10642038
122	0xbeb6e6d9	-0.35722998
123	0xbf0b7089	-0.5446859
124	0xbecc68aa	-0.39923602
125	0xbe1da6af	-0.15395616
126	0x3c776f25	0.0151021825
127	0xbd0eaa9d	-0.03483068
128	0xbd909713	-0.07060065
129	0xbdf60642	-0.12012912
130	0xbe4a15a4	-0.19734818
131	0xbe54de8b	-0.20788018
132	0xbe037a65	-0.12839659
133	0xbd9dab8e	-0.07698737
134	0xbe06428f	-0.13111328
135	0xbe4cc0af	-0.19995378
136	0xbe2ca8b9	-0.16861238
137	0xbe38a855	-0.18032964
138	0xbe4b5178	-0.19855297
139	0xbe127ae7	-0.14304696
140	0xbdde8fef	-0.10867297
141	0xbdc43b06	-0.0958157
142	0xbe788620	-0.24269915
143	0xbe5c2e04	-0.21501929
144	0xbe3147a2	-0.17312482
145	0xbe2ad3a3	-0.16682296
146	0xbda3771c	-0.07981703
147	0xbc93c631	-0.018038841
148	0x3be21be4	0.0069002975
149	0x3c858f5d	0.016303713
150	0x3c5d514f	0.013508155
151	0x3cfc834e	0.03082433
152	0xbad876f8	-0.0016514948
153	0xbc5849aa	-0.013201157
154	0xbc6dadf7	-0.0145068085
155	0x3d0f8496	0.035038553
156	0x3dcd7ba7	0.100333504
157	0x3df3730a	0.11887176
158	0x3d9d58e2	0.07682969
159	0x3d440556	0.04785665
160	0xbd237219	-0.039903734
161	0x3d88a65a	0.06672354
162	0x3e56627c	0.20936006
163	0x3e99e065	0.30054012
164	0x3e8195c1	0.25309566
165	0x3e5ca49a	0.21547166
166	0x3e046df2	0.12932566
167	0x3c0f590c	0.008749258
168	0x3dceb2a2	0.10092665
169	0x3e6fbc9b	0.23411791
170	0x3ea79cb6	0.32736748
171	0x3e9d6d8c	0.3074764
172	0x3e7d47fb	0.2473449
173	0x3e005c64	0.12535244
174	0x3d485291	0.048906866
175	0x3d989b22	0.07451464
176	0x3df5c410	0.120002866
177	0x3dfb583f	0.12272691
178	0x3da550ef	0.080720775
179	0x3ba5c3c3	0.005058737
180	0xbd79d90e	-0.060998015
181	0xbd9cddd6	-0.07659499
182	0x3c8df6fc	0.017329685
183	0x3cc453f2	0.02396581
184	0xbd8a5fb7	-0.067565374
185	0xbdf4297e	-0.119219765
186	0xbdf90c2c	-0.12160525
187	0xbe1354b8	-0.14387786
188	0xbdbc551f	-0.09195923
189	0xbc73bcda	-0.014876569
190	0xbaccfd1a	-0.0015639395
191	0xbdc48ecb	-0.09597548
192	0xbd8c7a9e	-0.06859325
193	0xbd7ff1ae	-0.062486343
194	0xbd182399	-0.037143324
195	0x3c556e7f	0.013026833
196	0xbc7322f9	-0.014839881
197	0xbca12c63	-0.019674486
198	0x3afe7961	0.0019414836
199	0xbc6779c3	-0.014128151
200	0xbd30438e	-0.043033175
201	0xbcfb86a7	-0.030703856
202	0xbb46b8ca	-0.0030322545
203	0x3c8a43d9	0.016878055
204	0x3dc187fd	0.09449766
205	0x3dbbb4db	0.09165355
206	0xbc9b76eb	-0.018977603
207	0xbe06d32a	-0.1316649
208	0xbddd8a0e	-0.108173475
209	0xbcb5b268	-0.022179797
210	0x3dcfcd51	0.10146583
211	0x3e708461	0.23487999
212	0x3e008a96	0.12552866
213	0xbe1aefd1	-0.15130545
214	0xbea1e52e	-0.31620163
215	0xbe4c0c09	-0.19926466
216	0xbd502105	-0.05081274
217	0x3e236dd7	0.1595987
218	0x3e65e7b6	0.22451672
219	0xbcc086e2	-0.023501817
220	0xbea738a2	-0.32660395
221	0xbec8a60e	-0.3918919
222	0xbe5f2568	-0.21791613
223	0xbc7d62d0	-0.015465453
224	0x3dce15a4	0.10062721
225	0x3da63eb9	0.08117432
226	0xbe050992	-0.12991932
227	0xbe909de4	-0.2824546
228	0xbe465c3c	-0.19371122
229	0xbdba33d6	-0.09091918
230	0x3d36a1d1	0.044587914
231	0x3bb65f50	0.0055655614
232	0xbb36455c	-0.0027812338
233	0xbd840c92	-0.0644771
234	0xbd455c00	-0.04818344
235	0x3dba0d79	0.09084601
236	0x3e08803f	0.13330172
237	0x3dd2061c	0.102550715
238	0xba75ee99	-0.0009381562
239	0xbc15920c	-0.009129059
240	0xbba3dd71	-0.005000763
241	0x3d92bf0c	0.071653455
242	0x3e011a8d	0.12607785
243	0x3de3c97c	0.111224145
244	0x3d722868	0.059120566
245	0x3d16c250	0.036806405
246	0xbdb5d774	-0.08878985
247	0xbde2c700	-0.110731125
248	0xbdea0543	-0.11426785
249	0xbe3ebd76	-0.18626961
250	0xbe2fef85	-0.17181213
251	0xbd5a9fc5	-0.053375024
252	0xbdb5afe6	-0.088714406
253	0xbe74cdd5	-0.23906644
254	0xbe5470fd	-0.20746227
255	0xbe1b2b73	-0.15153293

embedding.weight f4 [10, 784]
0	0xbe1b41ac	-0.1516177
1	0x3dc207e1	0.09474159
2	0x3e7e5a32	0.24839094
3	0x3f61539a	0.8801819
4	0x3c23b0a6	0.009990847
5	0x3f13f09b	0.5778901
6	0xbea2993f	-0.31757542
7	0xbfd62b2e	-1.6731927
8	0x3f953da8	1.1659441
9	0xbf6d6076	-0.9272531
10	0xbf36db92	-0.7142879
11	0x3f69c982	0.913231
12	0x3eef4cda	0.4673832
13	0xbde7cd3b	-0.113184415
14	0x3e3a238a	0.1817762
15	0xbeb72115	-0.35767427
16	0x3eabba1e	0.33540434
17	0x3cca1f9f	0.024673281
18	0x3f201438	0.6253085
19	0x3fe2137b	1.7662195
20	0x3e1a762a	0.15084139
21	0xbf16eee8	-0.5895829
22	0xbde10538	-0.109873235
23	0xbfba2b14	-1.4544396
24	0xbf5cac55	-0.8620046
25	0xbf4e557c	-0.8059919
26	0x3ed44a17	0.41462776
27	0x3eda8fa4	0.42687714
28	0x3dd3acea	0.10335715
29	0xbf7dc1b4	-0.9912369
30	0x3f147650	0.5799303
31	0x40022443	2.0334632
32	0xbe17cff7	-0.14825426
33	0x3f89f120	1.077671
34	0xbf9b756f	-1.2145213
35	0xbf23c969	-0.639792
36	0xbf48cbc7	-0.7843594
37	0xc0115e82	-2.2713933
38	0x3fa9fe7b	1.3280786
39	0x3f4f84b4	0.81061864
40	0x3f1e2ff8	0.61791945
41	0x3dd3dda1	0.10345007
42	0x3f1b4906	0.606583
43	0x402fc6cb	2.7465084
44	0xbf3d3516	-0.7390913
45	0x3f4670d7	0.7751593
46	0xbe6c693a	-0.23087016
47	0xbc3e2856	-0.0116062965
48	0xbfbd8136	-1.4805057
49	0x3f646e3b	0.892307
50	0x3f9dfef1	1.2343427
51	0xbfe67bb5	-1.8006502
52	0xbef4a302	-0.47780615
53	0xbfabc840	-1.3420486
54	0x3bd0878a	0.0063638138
55	0x3fc970f6	1.5737598
56	0x40247fbd	2.5702965
57	0xbf5852db	-0.8450143
58	0x3fabc65b	1.3419908
59	0xbfb33a2b	-1.4002126
60	0x4005845a	2.086203
61	0x3f76524b	0.9621932
62	0x3ed36bfa	0.41293317
63	0x3feeb12e	1.8647821
64	0xbf3fed0c	-0.7497108
65	0x3f9c7a59	1.2224838
66	0x40089325	2.133981
67	0x3dcb4623	0.09925487
68	0x3f943b5c	1.1580615
69	0x3fcb1d8a	1.586839
70	0xbb0eb13c	-0.002177312
71	0xbf6694d4	-0.90070844
72	0xbfa651bf	-1.2993697
73	0x3f5a0420	0.85162544
74	0xbebc8959	-0.36823538
75	0x3e7f1f89	0.24914373
76	0xbf70418c	-0.93850017
77	0x3e13a81d	0.14419599
78	0x3f363fb5	0.7119096
79	0x3f69f064	0.9138243
80	0xbf5dad80	-0.86592865
81	0xbf2abd64	-0.6669524
82	0x3f70c0be	0.940441
83	0xbe1b5f1f	-0.15173005
84	0xbfa3806c	-1.2773566
85	0x3eef8c8a	0.4678691
86	0x3f35be1e	0.7099322
87	0xbf9d92ef	-1.2310466
88	0x3e395cee	0.18101856
89	0xbf071a98	-0.52774954
90	0x3f788ebe	0.9709281
91	0xbfb1fd88	-1.3905497
92	0x3f3df12b	0.7419612
93	0x3dd5cf6b	0.104399525
94	0xbf8d8ae1	-1.1058007
95	0x3f200b85	0.6251758
96	0xbf81386a	-1.0095341
97	0xbf73ecb2	-0.95283043
98	0xbfe11126	-1.7583358
99	0x3f820f7c	1.0160975
100	0x3f1cbe59	0.6122795
101	0xbfa8dc6b	-1.3192266
102	0xbfc99d6e	-1.5751169
103	0x3eb55b43	0.3542119
104	0x3e9b8e82	0.30382162
105	0xc0260e33	-2.5946167
106	0x3df2bdf3	0.11852636
107	0x3f94e7f8	1.1633291
108	0xbfac5a20	-1.3465004
109	0x3e24b11b	0.16083185
110	0x3fe5e617	1.7960843
111	0xbfa0abb6	-1.2552402
112	0x3f615c5b	0.8803155
113	0xbdf1b5a9	-0.11802227
114	0xbf162023	-0.58642787
115	0x3f308ba5	0.6896308
116	0xbf39044b	-0.72272176
117	0xbf4db03c	-0.8034704
118	0xbf816567	-1.010907
119	0x3ef34cce	0.47519535
120	0xbfaf950b	-1.3717359
121	0x3f305aad	0.6888836
122	0xbf7cc097	-0.9873137
123	0x3e369e66	0.17833862
124	0xbf0db4df	-0.5535411
125	0x3ea65ea8	0.32494092
126	0xbf5a08a4	-0.85169435
127	0x3eb676e7	0.3563759
128	0xc0231302	-2.5480351
129	0x3e92e20e	0.2868809
130	0x3fb6d95f	1.4285086
131	0xbf24cedb	-0.64378136
132	0x3f8c05ef	1.0939311
133	0x3f54a098	0.83057547
134	0xbcf44065	-0.029815862
135	0x3f190e53	0.5978748
136	0xbfa40bd3	-1.2816108
137	0x3d92b95c	0.07164261
138	0xbfe0f426	-1.7574508
139	0xbfbd4a25	-1.4788252
140	0x3f97b570	1.1852245
141	0x3f461937	0.77382225
142	0xbe142f0a	-0.14471069
143	0xbffcc1dd	-1.9746662
144	0x3f87360d	1.056337
145	0x3f9e5d5d	1.2372242
146	0xbf354fde	-0.7082499
147	0x400c4935	2.1919682
148	0xbfc415fd	-1.531921
149	0xbf5295ea	-0.8226
150	0x3f858b69	1.043317
151	0xbee540b2	-0.4477592
152	0xbfb12dca	-1.3842099
153	0x3e30a2e2	0.17249635
154	0x3dcfdf31	0.10149992
155	0x40204df2	2.5047574
156	0x3ea37be7	0.31930467
157	0xbd765be8	-0.060146242
158	0x3e093896	0.13400492
159	0xbeca75b1	-0.39542916
160	0x3d84fb67	0.06493264
161	0xbfa1b76c	-1.2634101
162	0xbf7c9734	-0.9866822
163	0xbec8683c	-0.39142025
164	0xbf6493fb	-0.892883
165	0xbe46b511	-0.19405009
166	0xbf4396f3	-0.76402205
167	0x3b4dc163	0.0031395785
168	0x3d25fa0a	0.04052166
169	0x3fec2526	1.8448837
170	0xc008ae8c	-2.1356535
171	0x3fe474f2	1.7848189
172	0xbfcf3be3	-1.6190151
173	0x3feff5e9	1.8746921
174	0xbfa42d12	-1.2826254
175	0x3f84580d	1.0339371
176	0x3d4b319a	0.04960785
177	0x3f473ae3	0.7782423
178	0xbf46de0e	-0.7768258
179	0x3fb81af2	1.4383223
180	0x3f25909b	0.64673775
181	0xbf70ff2b	-0.94139355
182	0x3f028c04	0.50994897
183	0x3fb04356	1.3770549
184	0x3e8284b4	0.2549187
185	0x3e7841d4	0.24243861
186	0xbfe924ee	-1.8214395
187	0xbdcfd6d3	-0.10148396
188	0xbfd499c5	-1.6609427
189	0x3f828dfb	1.0199579
190	0x3fab7b47	1.3396996
191	0xbf6602ee	-0.8984822
192	0xbf755fde	-0.95849407
193	0xbf10ffe9	-0.5664049
194	0xbccdb341	-0.025109889
195	0xbee73723	-0.45159253
196	0x3f82331d	1.0171849
197	0x3faf8ada	1.3714249
198	0x3f04e6f3	0.519149
199	0x3f9707ed	1.1799294
200	0xbfe34b66	-1.7757385
201	0xbe6c14ed	-0.23054858
202	0xbeeebfd1	-0.4663072
203	0x4017e8f8	2.3735943
204	0x3e2e4b59	0.1702093
205	0x3d363b3d	0.044490088
206	0xbe7e6690	-0.24843812
207	0x3f4b8fe4	0.79516435
208	0x3d5f0137	0.054444518
209	0xbdda2ded	-0.10653291
210	0xbe4a9660	-0.19783926
211	0x3fd76c80	1.6829987
212	0xbf29f94a	-0.6639601
213	0xbf1935f2	-0.5984794
214	0xbe81c1e7	-0.25343248
215	0xbdc9871d	-0.09840224
216	0xbe22c5cb	-0.15895765
217	0x3f9b2ab3	1.2122406
218	0x3f13070d	0.57432634
219	0xbfa8ebc0	-1.3196945
220	0x3faa920c	1.332582
221	0xbf9a1254	-1.2036843
222	0x3f44ddb5	0.769008
223	0x3ec4c9f8	0.3843534
224	0x3e4f8a04	0.20267493
225	0xbf6020f5	-0.8755029
226	0xbf50491a	-0.81361544
227	0xbfd33d04	-1.6502995
228	0xbf049fe3	-0.5180647
229	0x40548332	3.3205075
230	0xbf2b33ce	-0.6687592
231	0x3f20763b	0.62680405
232	0x3c35a4da	0.011086667
233	0xbf3a70e6	-0.7282852
234	0xbd48edca	-0.0490549
235	0xbfa8360b	-1.3141493
236	0xbf4780ca	-0.7793089
237	0x3fcbed51	1.5931798
238	0xbf1d617e	-0.61476886
239	0x3fef4438	1.8692694
240	0xbf91d18b	-1.1392072
241	0xbf3ec649	-0.7452131
242	0xbe59c33d	-0.21265884
243	0xbf8e6a32	-1.1126158
244	0xbe3e4b20	-0.18583345
245	0x3e7ace39	0.2449273
246	0xbfb6abe2	-1.4271204
247	0xbebeb93a	-0.37250692
248	0xbe693927	-0.22775708
249	0xbf5b9320	-0.8577137
250	0xbedaa1cb	-0.42701563
251	0x3e9ba7fc	0.304016
252	0x3f3fec73	0.7497017
253	0x3c3dc89b	0.011583473
254	0xbfa16f80	-1.2612152
255	0x3f3b3b77	0.7313761

CNN.0.weight f4 [32, 2, 5, 5]
0	0x3da4ada7	0.08040934
1	0x3e80132d	0.2501463
2	0x3e7ccd78	0.24687755
3	0x3e63417c	0.22192949
4	0xbe351af7	-0.17686068
5	0x3e7c947b	0.24666016
6	0x3d70d696	0.058798395
7	0x3d0ba231	0.034090225
8	0xbb25b13c	-0.0025282642
9	0xbef38db4	-0.47569048
10	0x3e2a19db	0.16611426
11	0x3e11de90	0.14245057
12	0xbe2e4a21	-0.17020465
13	0xbeb49a0e	-0.35273784
14	0xbe43a261	-0.19104911
15	0xbe6671d6	-0.22504362
16	0xbe85d6d6	-0.2614047
17	0xbec46b07	-0.38362905
18	0xbdd2a2e3	-0.102849744
19	0x3d988d8e	0.074488744
20	0xbec08006	-0.37597674
21	0xbe83e965	-0.25764003
22	0xbc61589a	-0.013754034
23	0xbcfcde16	-0.030867618
24	0x3cb82a81	0.022481205
25	0x3d158428	0.036502987
26	0x3a991af1	0.0011681003
27	0xbc16e425	-0.009209667
28	0xbdbbf936	-0.091783926
29	0x3ddf350a	0.10898788
30	0x3bc38048	0.00596622
31	0x3dae9e76	0.08526318
32	0x3bf8160a	0.0075709866
33	0x3d920fa1	0.07131887
34	0xbd12a78e	-0.035804324
35	0xbc94ed02	-0.01817942
36	0xbd692b52	-0.05692608
37	0x3baf151c	0.0053430926
38	0x3dc14a29	0.09437973
39	0x3c594204	0.013260368
40	0x3d7afea4	0.061278
41	0xbd2e8c1f	-0.0426141
42	0x3cd0ed84	0.025503881
43	0xbd611d6c	-0.0549597
44	0xbcae5658	-0.021281406
45	0xbb91978b	-0.004443114
46	0x3b23a829	0.0024972057
47	0x3cad1f17	0.021132989
48	0x3dd65fde	0.10467504
49	0x3d7cd4aa	0.06172625
50	0x3cfd1b2a	0.030896742
51	0x3df08340	0.11743784
52	0xbdccab2f	-0.09993588
53	0xbd16b90b	-0.036797564
54	0x3e339789	0.17538275
55	0xbb1898fc	-0.0023284545
56	0xbd22bdb7	-0.039731707
57	0x3e87bfb0	0.26513433
58	0x3d38dbf4	0.04513164
59	0x3dae0625	0.08497266
60	0xbe3dec05	-0.18547066
61	0x3d846b4a	0.06465776
62	0xbd1780d6	-0.036988102
63	0xbd92508c	-0.07144269
64	0xbd9b8452	-0.075935975
65	0xbe195a58	-0.1497587
66	0x3ced292d	0.028950298
67	0xbc29aa4b	-0.010355542
68	0x3dc8262c	0.09772906
69	0x3d90d986	0.07072739
70	0x3e11139a	0.14167634
71	0xbdbbba4e	-0.09166394
72	0xbd89f739	-0.06736607
73	0xbe19b566	-0.15010604
74	0x3d35cfa4	0.044387475
75	0xbd24842f	-0.040165123
76	0xbdd0df00	-0.10198784
77	0xbdcb026b	-0.099125706
78	0xbcbff2ed	-0.023431266
79	0x3dd2cf3f	0.10293435
80	0xbd40b6c9	-0.047049318
81	0x3cb5ba24	0.022183485
82	0xbd3a4c3e	-0.045482866
83	0x3d5a8c90	0.053356707
84	0x3d6773a7	0.05650678
85	0xbdd93ee2	-0.10607697
86	0xbd5591b5	-0.05214091
87	0x3d65f646	0.056143068
88	0x3de3483a	0.110977605
89	0x3de3bac4	0.11119607
90	0x3e114392	0.14185932
91	0x3d62c69c	0.05536519
92	0xbc8e99dc	-0.01740735
93	0xbd9dcf70	-0.07705581
94	0x3cc3dab7	0.023908002
95	0xbdd6b30d	-0.1048337
96	0xbc37e874	-0.011224855
97	0xbe0611ff	-0.13092802
98	0x3d5c91a3	0.053849827
99	0xbaebb0e8	-0.0017981799
100	0xbc1a8921	-0.009432108
101	0x3ca16985	0.019703636
102	0x3e5461a5	0.20740373
103	0x3d8c87c7	0.06861835
104	0x3d4c8367	0.049930003
105	0x3de37e14	0.11108032
106	0xb9d2f975	-0.0004024018
107	0x3e46e97e	0.19425008
108	0xbdef118f	-0.11673271
109	0x3da6f232	0.08151664
110	0x3db80caf	0.08986794
111	0xbda8126a	-0.08206637
112	0x3e447146	0.19183835
113	0x3e5f9c6d	0.21837015
114	0xbdf694cb	-0.12040099
115	0xbcba2603	-0.022723204
116	0xbdedafdf	-0.116058104
117	0x3b47c3c8	0.0030481685
118	0x3deb1990	0.11479485
119	0x3e433deb	0.19066589
120	0x3d3d4275	0.046205956
121	0x3cd0b95e	0.025479015
122	0xbdba2cc0	-0.09090567
123	0x3e2485f5	0.16066726
124	0x3c1730e4	0.009227965
125	0xbdafe7b3	-0.08589115
126	0xbd5ac1a0	-0.05340731
127	0x3db25c95	0.08709065
128	0xbdb6dcb9	-0.08928818
129	0xbdd52a01	-0.10408402
130	0x390ccd5e	0.00013427946
131	0x3d9d97cb	0.07694968
132	0x3d069e81	0.032866005
133	0x3de7b1f0	0.11313236
134	0x3d831b85	0.06401733
135	0x3d98f17b	0.07467934
136	0x3c9b4148	0.018952027
137	0xbe38b2ae	-0.18036911
138	0xbe12a8d6	-0.14322218
139	0x3d82e91b	0.063921176
140	0x3df3c3ca	0.11902578
141	0x3c9919ba	0.018689025
142	0x3d4db8cf	0.050225075
143	0x3d8439aa	0.06456311
144	0x3d71b3f2	0.0590095
145	0x3db43bdc	0.0880048
146	0x3dd1b162	0.10238911
147	0x3d0c3931	0.03423423
148	0x3cc30b20	0.023809016
149	0xbba87d6d	-0.005141905
150	0xbe0fc637	-0.14040457
151	0xbde88cd7	-0.11354988
152	0x3c85897c	0.01630091
153	0x3db11fa2	0.086486116
154	0x3e29d04a	0.16583362
155	0xbc8bee41	-0.017081382
156	0xbe77cc6a	-0.24199072
157	0xbe41be52	-0.18920258
158	0x3b192a1e	0.002337105
159	0x3e8349b4	0.2564217
160	0xbcaedb6e	-0.021344867
161	0xbdffdb5b	-0.124930106
162	0xbe04cd09	-0.1296884
163	0x3df2ce2f	0.11855733
164	0x3e7b044a	0.24513355
165	0xbe3f48a5	-0.18680055
166	0xbe6fdb56	-0.23423514
167	0xbe09f39e	-0.13471839
168	0x3e9d869e	0.30766767
169	0x3d2d51cd	0.04231434
170	0xbe197824	-0.14987236
171	0xbe3e0fd7	-0.1856073
172	0x3db4fbfd	0.088371255
173	0x3e7848da	0.2424654
174	0xbdf6f33d	-0.12058113
175	0x3db7bf4a	0.08972032
176	0xbd9c3056	-0.07626407
177	0xbd3e7324	-0.046496525
178	0xbd8856e3	-0.06657197
179	0xbcc329eb	-0.023823699
180	0xbce6dea6	-0.028182339
181	0x3d7e4f51	0.06208736
182	0x3d8629ca	0.065509394
183	0x3d5f3057	0.05448946
184	0xbc30117b	-0.010746355
185	0x3be592c6	0.007006022
186	0x3d7eb7d5	0.062187035
187	0x3dd02f19	0.10165233
188	0xbda2d7dc	-0.07951328
189	0xbdca5b91	-0.09880746
190	0x3dd83137	0.10556262
191	0x3da5b41a	0.08090992
192	0x3d81b22b	0.06332811
193	0xbd798a3c	-0.060922846
194	0x3c9029e1	0.017598094
195	0xbc846486	-0.016161215
196	0x3d7eeda4	0.06223835
197	0x3e181572	0.1485193
198	0x3cfae60c	0.030627273
199	0xbbd10517	-0.0063787806
200	0x3dd6d2ec	0.10489449
201	0xbd4199ad	-0.047265697
202	0xbcccb9fe	-0.024991032
203	0xbe23f23d	-0.16010375
204	0xbe1db3a8	-0.15400565
205	0xbe00f46e	-0.12593243
206	0xbda6698f	-0.081256025
207	0x3dc2d234	0.09512749
208	0xbd882cbd	-0.06649158
209	0xbd3dd6ff	-0.046347614
210	0x3e116bb4	0.14201242
211	0x3ddc2b46	0.10750441
212	0xbe3d2770	-0.18472075
213	0xbe109910	-0.14120889
214	0xbb82a48d	-0.003986901
215	0xbd33d007	-0.043899562
216	0x3e21e161	0.15808631
217	0x3e083eeb	0.13305251
218	0x3dc357d8	0.09538239
219	0xbd8d87a4	-0.06910637
220	0xbdea1fba	-0.114318326
221	0x3e75baba	0.23997012
222	0x3d8f3f07	0.069944434
223	0x3e76163e	0.24031922
224	0x3de6e56c	0.112742275
225	0x3bebf272	0.0072005326
226	0x3d0d987d	0.034569252
227	0xbdd40a88	-0.10353571
228	0x3bf4b23b	0.007467536
229	0x3d78eb75	0.060771424
230	0xbe13a93c	-0.14420027
231	0xbe0ff2bc	-0.1405744
232	0x3e1b8562	0.151876
233	0xbdf8dd62	-0.121516004
234	0xbd9f5fb9	-0.077819295
235	0x3e02d13f	0.12775134
236	0x3d2a86d6	0.041632496
237	0xbd9c0b2a	-0.07619317
238	0xbc8dce4f	-0.01731029
239	0x3d2c5ef7	0.042082753
240	0xbd47a255	-0.048738796
241	0x3dd6dbf6	0.10491173
242	0xbcb4010a	-0.021973152
243	0x3dd33817	0.10313433
244	0xbdfcc010	-0.123413205
245	0xbd219d35	-0.039456565
246	0x3db8ac8c	0.09017286
247	0x3e23baf3	0.15989284
248	0xbdc54537	-0.09632342
249	0xbe24f75a	-0.16109982
250	0xbad3c22e	-0.0016155893
251	0xbe135b48	-0.1439029
252	0x3e413616	0.18868288
253	0x3e1e3d97	0.15453182
254	0xbe183354	-0.1486333
255	0xbd3855a7	-0.04500356

CNN.0.bias f4 [32]
0	0x3cd42d8a	0.025900621
1	0xbdfeaac4	-0.12434915
2	0xbde529a6	-0.111895844
3	0x3cbafe8f	0.022826461
4	0xbd0fce3f	-0.0351088
5	0x3db386db	0.08765956
6	0x3d11b66f	0.035574373
7	0xbd2838f4	-0.04106994
8	0x3df5877e	0.11988734
9	0x3d89632c	0.06708369
10	0x3d2bc36e	0.041934423
11	0xbd369e46	-0.044584535
12	0xbac228db	-0.0014813201
13	0x3e0b926d	0.13630076
14	0x3e05a1e4	0.13050038
15	0xbc078d0e	-0.008273376
16	0xbc83699b	-0.016041568
17	0xbd60252b	-0.054722946
18	0xbdb9e41f	-0.09076714
19	0xbcf775d5	-0.030207554
20	0x3c59814e	0.013275458
21	0xbdc493b0	-0.09598482
22	0xbd5b5395	-0.053546507
23	0x3cc0cf96	0.023536485
24	0x3dfeb9d7	0.1243779
25	0xbd6297f1	-0.055320684
26	0xbd2867c0	-0.04111457
27	0xbc5c7147	-0.013454742
28	0xbd072364	-0.032992736
29	0x3dd49638	0.103802145
30	0xbd9e2263	-0.077214025
31	0xbdb62f6f	-0.08895766
