saved_models/GAN_6.pth (torch, 893871 bytes, 28 tensors)

embedding.weight f4 [10, 3]
00000000: b052 5abf 2108 753e cd91 afbf c607 7cbf
00000010: 037b af3e 1d91 32bd 6bad 823e 7f28 93bf
00000020: be62 89bf 7f90 12c0 81b4 2f3f 23c7 b03f
00000030: 4799 23bf 0c85 723f 499c 1f3f a37f 90bf
00000040: 3989 a63f 9f96 84bf f033 163d cd32 a23f
00000050: 55c1 a6be 5558 1ebf 6f68 13bf 0bb3 a33f
00000060: 51e6 7ebd 7b60 fbbf 9a4c 86bf d208 46bf
00000070: 69e4 4dbf 9db8 9d3e
-0.8528242 0.23928882 -1.371637 -0.9844936 0.34273538 -0.043595422 0.25522932 -1.1496733
-1.0733259 -2.2900693 0.686348 1.3810772 -0.6390576 0.94734263 0.6234785 -1.1288952
1.3010627 -1.0358466 0.036670625 1.2671753 -0.32569376 -0.61853534 -0.5758123 1.2789015
-0.062231366 -1.9638819 -1.0492127 -0.7735721 -0.8042665 0.3080491

ConvTransp2D.0.weight f4 [6, 48, 4, 4]
00000000: c363 3b3d 31e5 d83c 2e69 593c 8305 63bc
00000010: 46d8 2cbc c645 08bd af16 56bc e678 3abd
00000020: e473 f4ba b9dc fbbc dbef 2dbc 9eaa 2ebc
00000030: 08d9 673d 9ffe b43c e119 b43d 5d7b 113d
00000040: c3ee 2abb 9a3f 34bd e450 7dbc 0c1c fcbc
00000050: 310c 07bd b566 bcb9 7c97 3f3c b1af c83c
00000060: 51a3 603d 4e43 44bd 73ea a03c b33b 5a3d
00000070: a776 67bb b267 d6bb 69a2 d83c 30c7 e63c
00000080: 87d3 9b3b 2d6d be3c bd49 64bc d31c 56bb
00000090: 85c7 76bc f90d 49bd 1eb8 883d ac42 323d
000000a0: 6f58 9ebb 36a6 223d cc6f 9abc 82d5 86bc
000000b0: 765e 803c a1ce 7d3c e78c 43bd faea aebc
000000c0: 4dd7 31bd 381c e3bb df25 10bd 72b4 f23c
000000d0: fc32 683c bc09 b33c 3445 07bd a868 2abb
000000e0: 4eeb 173d ee3c fc3a 4f2d b73c e240 2d3c
000000f0: 26dc 6abd ee1e f63c 3990 89bc bf2f c93c
00000100: 5700 6c3b 21a7 73bb 5f15 1d3d 6431 7abd
00000110: 58ad 93bc 8e6d 163d a0b9 e83c 3bee 603c
00000120: 58ae bb3c 21bf 36bc a259 0abd 5b00 95bb
00000130: 613f c539 3228 853c 5d78 e0bc dca7 3f3d
00000140: 6ac8 f73b 1da1 553c 10c2 eb3b d8ab 19bd
00000150: 070b 05bd 9111 edbc c9dd 51bc f49d 72bb
00000160: 3796 8e3c fbaa fcbc 9df2 283c b7f1 1d3d
00000170: 7ec9 cb3c 485d 6fbc 5349 cdbb 5de6 803d
00000180: bd64 4a3d b152 923c 7106 8bbc 19b2 c5bc
00000190: caff e63b 6f37 103d 20f4 1cbc 4987 84bc
000001a0: 6fa1 06bc 4bad d93c 0a42 453d 5504 a33d
000001b0: 71f2 28bc 9cdf b4bb e9a5 94bc 848b 763d
000001c0: 3a83 9d3b e624 87bd f182 14bd 358f 36ba
000001d0: 7f1f 80bc 65c3 67bc 2184 b43c 2948 c13c
000001e0: 9e7e 3a3d 290a af3b 7dce 363d f0a9 7c3d
000001f0: e503 0fbc 8046 203d 4c2c 0a3c 6d78 183d
00000200: 9756 323b faa9 ffb9 43ac e33d cd11 e4bc
00000210: d598 ce3c 91ec e53b 39dd 47bd fe14 5dbc
00000220: 5925 88bc 52ab 803c 7079 223d 7ea7 0a3d
00000230: 1bfa e23b 267a 82bc 19d1 b13c 0e73 573d
00000240: 73c3 ed3c ea6e a1bc 8416 52bc 61ca 833a
00000250: 834d 5d3d 7afd 37bc 1db4 3a3b 6bf8 7c3c
00000260: 8210 64bd c191 2a3b 4953 b6bc 57d7 ef3c
00000270: 4952 65bd d0d3 e83c 9790 aaba 003d f23c
00000280: 48ff 233d 3e0c 723d 02f7 a73b 3998 24bd
00000290: 8221 c9bc 95a6 0d3c 2acd a03c 6230 80bd
000002a0: 6e3b 183d ac1a ecba 6593 f9bc 72a6 313c
000002b0: ba83 4ebd 1c66 0b3b 5c9a d63c c2c5 683d
000002c0: 0d98 d63c 2292 a9bc c238 ba3c ee76 493d
000002d0: 9f58 783c dbf4 953c c3ec 353d 03c5 42bb
000002e0: 308f 943a ccf3 0abd 62fe 6a3c df89 dabb
000002f0: 5cc0 21bd 1bdb 7d3d 7fe5 86bc ac61 813c
00000300: 495a dcba f780 d8bc cd16 ff3c df5d e93c
00000310: 63f8 733c be1f 1e3c 8766 c73b 9464 d23b
00000320: dc58 3abd 3ce5 3f3b 6011 07bd 6dd8 e03b
00000330: 9315 e73b 56a4 97bc b33b d73c 7e57 0c3c
00000340: eee9 833c cedd ae3c 6a8d 36bb 9bce 3dbd
00000350: f09d 363d 0615 13bc b6bd 453b 1b47 50bd
00000360: 2d74 0fbb c7e7 483d 0596 853c dd97 86bb
00000370: d84a dfbc 0633 d23c 3034 86bb 407b 953c
00000380: 915d a33c c688 573d 8a16 b6bc bfba 34bd
00000390: 2491 6f3c b632 4d3c 408f 363d 9f47 883c
000003a0: 6bb2 143d 7b15 08bd 20f8 41bc 1bf5 a2bc
000003b0: de83 c2bc 90b8 45bd 09ad b6bb cd22 1b3d
000003c0: 767f 1f3d 863e 1fbd 453d abbc 96a7 a8bc
000003d0: 6cdc 57bc e64b be3c e091 843c e9c2 3fbd
000003e0: 648c 5c3c 6010 793c 0289 85b9 bb38 47bc
000003f0: 8777 8f3c 4061 34bd 45ec 33bd bf0d bd3b
0.045749437 0.026476474 0.013269706 -0.013856295 -0.0105496105 -0.033269666 -0.013066932 -0.045525454
-0.0018650261 -0.030744897 -0.010616268 -0.0106607955 0.05660346 0.022094069 0.087939985 0.03551804
-0.0026082254 -0.044005968 -0.01546118 -0.030775093 -0.03297061 -0.00035934677 0.0116938315 0.024497839
0.05484325 -0.04791575 0.019643044 0.05327959 -0.0035318525 -0.006543123 0.02644463 0.028171152
0.0047554406 0.023245418 -0.013933596 -0.003267099 -0.015062218 -0.04908559 0.066757426 0.043520615
-0.0048323194 0.039709292 -0.018852137 -0.01645923 0.015670042 0.015491159 -0.047741797 -0.02135228
-0.043418217 -0.006930854 -0.035192367 0.029627059 0.014172312 0.021855228 -0.03302498 -0.0026002321
0.03708964 0.0019244233 0.022360472 0.010574551 -0.057338856 0.030044045 -0.016792404 0.0245589
0.0036010945 -0.0037178474 0.03835046 -0.06108226 -0.018026993 0.036725573 0.028408825 0.013728674
0.022910282 -0.011153967 -0.033776887 -0.0045471615 0.0003762199 0.016254518 -0.027401144 0.046790943
0.007561733 0.013038901 0.007194765 -0.0375174 -0.03248122 -0.02893904 -0.012809225 -0.0037020417
0.017405612 -0.030843249 0.01031175 0.038560595 0.024876352 -0.014609642 -0.0062648444 0.06293938
0.049412478 0.017861696 -0.016970845 -0.024132775 0.0070495354 0.035209116 -0.009579688 -0.01617779
-0.0082172 0.02657189 0.048158683 0.07959811 -0.010311709 -0.0055198204 -0.018145518 0.060191646
0.004806903 -0.06598835 -0.036257688 -0.00069640885 -0.015640019 -0.014145707 0.02203566 0.023593979
0.045530908 0.0053417874 0.044630516 0.061685503 -0.008728956 0.039129734 0.008433413 0.037224222
0.0027212256 -0.00048764033 0.11116841 -0.02784052 0.02521936 0.0070167263 -0.04879496 -0.013493774
-0.016619371 0.015706692 0.039666593 0.03385114 0.0069267876 -0.015927386 0.02170615 0.05259996
0.029023862 -0.019706208 -0.012822751 0.001005482 0.054029 -0.011229867 0.0028488704 0.015440087
-0.055679806 0.0026026818 -0.02225651 0.029277487 -0.055986676 0.028421313 -0.0013013062 0.029570103
0.040038377 0.059093706 0.005125881 -0.040184233 -0.02455211 0.008645673 0.01962908 -0.06259228
0.03716605 -0.001801332 -0.030465791 0.010842906 -0.050418593 0.0021270579 0.026196651 0.05682922
0.02619555 -0.020699564 0.022732142 0.049185686 0.015157848 0.018305233 0.044415247 -0.002971948
0.0011334177 -0.03392391 0.014342876 -0.0066692675 -0.03949009 0.061976533 -0.016466854 0.015793644
-0.0016811575 -0.026428683 0.031138802 0.028487144 0.014890763 0.009651123 0.0060852203 0.0064206813
-0.0454949 0.0029280921 -0.032975554 0.0068617375 0.0070521324 -0.018510979 0.026273584 0.008565782
0.016102757 0.021346 -0.0027855285 -0.046339612 0.044584215 -0.00897718 0.003017289 -0.05084906
-0.0021889315 0.049049165 0.016306886 -0.004107459 -0.027257368 0.025659095 -0.0040955767 0.018247247
0.019942077 0.05262067 -0.022227544 -0.044123407 0.014622007 0.012524297 0.044570208 0.016635714
0.036302965 -0.03322361 -0.011838943 -0.019892266 -0.02374452 -0.048271716 -0.0055748266 0.037874985
0.038939916 -0.038877986 -0.020903239 -0.020587724 -0.013175111 0.02322955 0.01618284 -0.04681674
0.013461206 0.015201658 -0.00025469816 -0.012159522 0.01751305 -0.044038057 -0.043926496 0.005769461

ConvTransp2D.0.bias f4 [48]
00000000: dc8a 193d 796d afbc aa3d fd3c bf51 403c
00000010: d375 f0bb 2838 8cbb fd83 683c 6711 de3b
00000020: c003 d7bc 8130 893c f059 a23c a254 603c
00000030: 79e6 95bb 91e6 f4bb 25af 76bc 3d54 f23b
00000040: 03ec 743c 20a0 93bc 9de4 1bbd 9882 8bbb
00000050: 8acc b8bb 3f91 833c ad72 04bd 46b5 96bc
00000060: f9f2 a03b e3b8 af3b de43 073c 5d38 863a
00000070: 190b 82ba efbe b23a 0a57 f93c 4012 5abc
00000080: 6951 09bd a5e7 a9bc 2945 4bbc 2d59 e5bc
00000090: a79f 5c3c 0771 343d ba09 ffbc a455 153c
000000a0: 94a8 79bc 3594 bcbc efb3 3cbc 0de9 d9bc
000000b0: e3e6 863c 7e0a a2bc cdf4 cb3b bb60 afbc
0.037485942 -0.021414505 0.030913193 0.01173824 -0.0073382645 -0.0042791553 0.014191625 0.006776977
-0.026246905 0.016746761 0.019818276 0.013692053 -0.0045745936 -0.0074737747 -0.015056406 0.007395296
0.014948848 -0.01802069 -0.03805982 -0.0042575113 -0.0056396173 0.01606047 -0.032335926 -0.018396985
0.004911777 0.0053626164 0.008255927 0.0010240186 -0.000992152 0.0013637225 0.030437011 -0.013310015
-0.033524904 -0.02074034 -0.012406626 -0.027996624 0.013465798 0.044053104 -0.031132568 0.009114657
-0.015237946 -0.02301989 -0.011517509 -0.026600385 0.016467517 -0.019780394 0.006224251 -0.02140843

ConvTransp2D.1.weight f4 [48]
00000000: 92ee 803f 0062 833f 50d9 7d3f 71c4 7d3f
00000010: c20b 823f 1aad 843f 47e2 7d3f 73d8 7f3f
00000020: 861c 783f cb50 803f 9875 7e3f b127 7e3f
00000030: 2719 7b3f f32e 803f b9bd 823f e163 803f
00000040: 1de2 843f 4c0e 883f f046 7f3f c6d5 813f
00000050: 5743 793f 1a7c 833f 40b8 823f 0bca 7a3f
00000060: fa1e 7b3f f158 783f efa7 813f 926a 7e3f
00000070: dd59 823f f6b4 833f 256f 7c3f ba81 803f
00000080: b52f 853f 3486 803f 19a9 7c3f 3b4a 813f
00000090: 0af9 803f a2f1 833f dea1 803f 73f1 7f3f
000000a0: a87b 7c3f 6316 823f cd57 7f3f 9dee 793f
000000b0: e072 793f dbfa 813f cd7f 7e3f 76c0 7b3f
1.0072806 1.0264282 0.9915972 0.9912787 1.0159838 1.0365326 0.99173397 0.9993965
0.96918523 1.0024656 0.99398184 0.99279314 0.98085254 1.0014328 1.0214149 1.0030481
1.0381504 1.0629363 0.9971762 1.0143363 0.9736838 1.0272248 1.0212479 0.97964543
0.9809414 0.97010714 1.0129374 0.99381363 1.0183674 1.02896 0.98607093 1.003959
1.0405184 1.0040956 0.9869552 1.0100778 1.0076001 1.0308115 1.0049398 0.999778
0.98626184 1.0163082 0.9974335 0.9762972 0.9744091 1.015468 0.9941376 0.9834055

ConvTransp2D.1.bias f4 [48]
00000000: 910d e83c d529 43bb 073b f5bb d96d 37bc
00000010: a1ad 0ebd 1861 543a ccf8 b4bb 4f0b bd3b
00000020: 046a 9abc d7a9 8dbc 244b 0abd 1f4e a9bc
00000030: b16a 7dbc 0151 d5bc 72f0 a83c 9d21 b6bc
00000040: 95ff bcbb ffc3 f53c 1b3b 73bb 73e8 dabc
00000050: b0a0 cabb d993 b6bb e3c5 0db7 f554 ffbc
00000060: cc03 afbc 51d6 d1bc 8bd5 313c b0cf 63bb
00000070: 16bd 14bd cf39 8f3b d8bf 3abd 411c 5abc
00000080: 0d83 ce3c 5293 c1bc a783 0bbb 9c83 183a
00000090: 81fc e8ba ec46 babc 627a 83bc 5f92 1ebc
000000a0: 468f 3cbb 6c14 543b c226 22bd 89f5 cfbc
000000b0: feeb 2f39 b10f c8ba d2e2 0f3c 401a acbc
0.028326781 -0.0029779573 -0.0074838432 -0.011195623 -0.034833554 0.00081016263 -0.005522823 0.0057691704
-0.01884938 -0.0172929 -0.033763066 -0.020667134 -0.015467332 -0.026039602 0.020622466 -0.022232825
-0.0057677724 0.030000685 -0.0037114087 -0.026722169 -0.006183706 -0.005571824 -8.450329e-06 -0.03116844
-0.021364115 -0.02561489 0.010854135 -0.0034761243 -0.03631314 0.004370905 -0.045593113 -0.0133124
0.025208974 -0.023629818 -0.0021288188 0.0005817951 -0.0017775447 -0.022738896 -0.016049568 -0.009678452
-0.002877192 0.0032360805 -0.039587744 -0.025385635 0.00016777214 -0.0015263465 0.0087821055 -0.02100861

ConvTransp2D.1.running_mean f4 [48]
00000000: 43c0 023d 593f babc a00b fd3c e897 3a3c
00000010: 992a 17bc 86e5 9cbb f03e 953b e745 ddb8
00000020: c8a0 0dbd 96e6 853c e9b4 903c d0b3 d83b
00000030: e33e c1bb cc6f 21bc e240 85bc 2aa0 4e3c
00000040: 4708 b93c edc5 b8bc da92 3fbd 920f 37bc
00000050: 2524 f2bb 9dda 613c 1d7f fdbc a045 99bc
00000060: 7f0f db3b 92c4 0a3b 1b05 d43b 8a04 b73b
00000070: 4baa 9bbb 888d 47bb afec 0f3d 4931 9fbc
00000080: 91c1 0abd 8feb acbc 9c96 34bc 22e5 eebc
00000090: 76e8 3a3c f812 3d3d 16a2 16bd 2133 cd3a
000000a0: 567c 93bc c56e acbc 248d 03bc 7d60 c3bc
000000b0: 51f9 8e3c 1c05 ecbc 3f94 373c cff8 dabc
0.031921636 -0.022735285 0.030889332 0.011388756 -0.009226465 -0.0047881035 0.004554622 -0.000105511215
-0.03457716 0.016345304 0.01766439 0.006613232 -0.0058973893 -0.009853315 -0.01626629 0.012611428
0.022586955 -0.022555316 -0.046770908 -0.011173146 -0.0073895627 0.013785032 -0.030944401 -0.018709958
0.006685197 0.0021174294 0.006470335 0.005585258 -0.004750525 -0.003044935 0.03513783 -0.01943268
-0.033876006 -0.021108417 -0.011022236 -0.029161993 0.011407962 0.046160668 -0.03677567 0.0015655496
-0.018003624 -0.021048913 -0.008029256 -0.02384972 0.017452868 -0.02881103 0.011204778 -0.02672997

ConvTransp2D.1.running_var f4 [48]
00000000: 0d10 6a3b b280 253b 0896 423b ab0f 2e3b
00000010: accc 2c3b 930d 1f3b b23a 5b3b 11bf 323b
00000020: ceae 273b cddc 4f3b 90cb 723b 114f 5f3b
00000030: d88a 2b3b c1a2 4d3b 9dae 5a3b dfe6 4b3b
00000040: 4daf 1e3b 0214 3c3b c0c4 2e3b 9161 4e3b
00000050: e67e 633b 4d7d 1b3b b892 483b 456a 6a3b
00000060: b193 5e3b 51ee 613b 6dfd 403b 8fb1 4b3b
00000070: 7363 1d3b 803b 2e3b 955c 1f3b faba 3f3b
00000080: 4656 513b fd7f 193b 5e41 763b fc03 643b
00000090: 6b5e 473b 458c 323b 1f7b 2d3b b021 313b
000000a0: 4788 4a3b 04ef 323b 4e06 233b bb45 6f3b
000000b0: 6bef 683b 99a6 323b cc32 563b 6d0f 613b
0.0035715133 0.002525371 0.0029691476 0.0026559632 0.002636711 0.0024269565 0.0033451733 0.002727453
0.002558637 0.00317173 0.0037047602 0.0034074227 0.0026175287 0.0031377526 0.0033368238 0.0031112952
0.0024213374 0.002869845 0.0026667565 0.003149126 0.0034713089 0.0023725808 0.003060503 0.0035768908
0.0033962543 0.0034474323 0.0029447929 0.0031081175 0.0024015575 0.0026585758 0.0024316658 0.0029255734
0.0031942292 0.0023422234 0.0037575583 0.0034792414 0.0030421268 0.0027244252 0.002647109 0.0027028136
0.0030903982 0.002730311 0.0024875584 0.0036510068 0.0035543095 0.0027259944 0.0032684086 0.003434147

ConvTransp2D.3.weight f4 [48, 24, 4, 4]
00000000: c800 ff3a 9723 eabc d620 2d3a 45a0 50ba
00000010: a248 1c3d 27b2 933b b2c1 efbc c647 103d
00000020: 18b0 1ebc 42fd d7bc 4d53 8ebb 81e8 8a3b
00000030: 135c 163d ec44 ebbc 76cb 5ebd a63f 2f3c
00000040: 55a2 c7bc a29f 24bb 92fb 8b3d 5d0d 1bbd
00000050: c434 c83c caeb dabc f4d7 c1bc 9aa1 803c
00000060: f800 4c3d 3e4d 74bd a904 a5bc 42f9 71bc
00000070: db6f cc3c 8e7c b43b f19a 463c 9a09 2dbc
00000080: e29e 973d 7a21 68bc 935f cb3b f19f 903d
00000090: 85cf 873d c602 04bc 45ac 363d 7d5d 4abd
000000a0: 11cc 453a df9f 56bc 234f f13c 18d5 ebbc
000000b0: e0b1 3a3c 2e10 c4bb 4cfb bcbc 351c 363c
000000c0: f54a 73bc 758e 49bc 8ea2 9e3b b9c5 7f3b
000000d0: bf4f 77bc b9f7 4b3d a953 393d 5cd2 41ba
000000e0: b9ef 823c d0f9 8ebc d761 ca3b 855a 313d
000000f0: 644f 833c 1c12 bebc 1f79 243d 5b03 7bbc
00000100: 9b17 3d3d 5b63 83bc 7b14 9bbc b151 c8ba
00000110: fb8b 043d e9a4 0ebd 091b 073d 532e 9e3c
00000120: 1a51 96bd 2dd5 e03c 3e34 e23b 5af7 203c
00000130: 389b 9ebb f2cf 1cbd 4f6d febb a5fc c53a
00000140: 9b06 2e3d f349 f5bc d2db 7a3d 5368 2c3d
00000150: b2c9 683a 553a 113d 447b c7bc 5d43 27bb
00000160: 6c54 c53c 7726 6c3c 0801 4d3c f1d1 de3a
00000170: de15 0fbd 565a 11bd 9ad5 1fbd e631 1c3d
00000180: 61e9 803b 7209 643d bd4a 70bc bbae 01bd
00000190: 3184 2a3d 8f1d a7bc dd60 c93c 0c80 493d
000001a0: eacf a6bc 6c0a 64bb 58df 31bd e3e2 793d
000001b0: 7afd bfbb fc3e 9a3c a70d 15bd 0a52 473c
000001c0: 9e3c 7c3d 0fc2 d3bc 5265 393d 1ba8 b1bc
000001d0: 7ff4 afba 7bbe aabc d3fd a63b 211e 093d
000001e0: 0d33 b23a eb79 1cbd fbb5 a23c 059d d8bc
000001f0: 4ff1 24bd 6519 263a ee1c 533d 99bf 4dbc
00000200: 935c ab3c 9d40 e33a ebad ed3c 3a9c 2bbd
00000210: e1ec c8bc 962a 523b e026 97bc 56d8 153c
00000220: caf4 283c 1d81 383d 3cd5 59bd 7a40 913c
00000230: 9b89 63bc 7ec0 343d ee18 48bd 2dcf adbc
00000240: 5bc8 db3c 8f1a 933d 4caa 77bc c06f 393d
00000250: 3cde 343d 5b53 cd3c f5aa b0bc 92d5 eabc
00000260: 4b0b d23c 66a9 c13c 4f21 ad3c 5362 4e3c
00000270: f71e 203c ba79 01bd 7c2b 2e3d 2f0a 23bd
00000280: 28ba 67bc 0cfb ccbb db05 9a38 9833 9e3d
00000290: 12aa afbc 5c22 ee3c 1083 a1bc fe60 35bd
000002a0: 551c 19bd 4174 8ebd 1b47 9fba 341f fbbc
000002b0: bc77 07bd e8c9 1f3d 49b9 41bb 4a73 9b3c
000002c0: 25b2 013d 3317 213d 267a d538 294a d13c
000002d0: 9628 9dbc 1fe8 9c3c f1ca 31bd 1f13 923c
000002e0: 6d27 00bd d9ad 01bc 2545 c33c 1406 ce3c
000002f0: 5941 1bbd e45d f2bc 3e7b 86bc ca2f a2bc
00000300: f9c1 4fbd 9907 04bb 850e 583b 65d6 78bc
00000310: 3b99 c93c faaa 1b3d 1217 b43b 1ef8 043c
00000320: 6a63 f6bb a3c3 f5ba 940c e83b 1e45 a13c
00000330: 4581 12bd 41c3 78bc cbef ab3c 2965 c6ba
00000340: 187f a83c 98d8 1ebd 5bb5 83ba 4f6c 553c
00000350: db2a b1bc a6c9 32bd 00fd 333d b61a 72bc
00000360: 07cc 313c b79f bf3c ede1 043d ae7b eabc
00000370: 0a86 2cbc 9b64 6ebb 82de 423d 280a a5bb
00000380: a938 13bd eb4d 733b 6997 ed3c 476d 4d3d
00000390: 4be7 37ba 2fca 073c 44b1 3ebd 4c70 1b3d
000003a0: bb5f df3a 1590 2bbd c071 2ebd c7e6 b33d
000003b0: 4266 f7bc 84f0 e13c b648 a73c 6648 c9bb
000003c0: b4d8 51bc 1403 f33a 414b 09bd 7c4a 0abd
000003d0: a530 a93c 1144 843c fe60 29bd d585 c23a
000003e0: aa43 f1ba 80a3 d83a f849 083d 50c3 973c
000003f0: d77b c4bc 71e2 423c a5c2 bc3c b94d 983c
0.0019455189 -0.028581424 0.0006604319 -0.00079584523 0.038155206 0.0045073214 -0.029267166 0.0352247
-0.009685539 -0.02636588 -0.0043434263 0.0042391424 0.036708903 -0.028719388 -0.054393254 0.010696327
-0.024369398 -0.0025119563 0.068350926 -0.03785454 0.024439223 -0.026723761 -0.023662545 0.015702058
0.04980561 -0.059643976 -0.020143824 -0.0147689 0.02495568 0.005508012 0.012121902 -0.010561371
0.07403351 -0.014168138 0.0062064617 0.070617564 0.06631378 -0.008057302 0.044597883 -0.049405564
0.0007545362 -0.01309964 0.02945668 -0.028788134 0.011394948 -0.005983374 -0.023069046 0.0111151235
-0.014849414 -0.012302031 0.0048411554 0.0039027764 -0.015094697 0.049796794 0.0452458 -0.0007393712
0.01598345 -0.017453104 0.006176214 0.043299217 0.016029067 -0.023201995 0.040154573 -0.015320624
0.04616509 -0.016038587 -0.018930664 -0.0015283135 0.03236006 -0.03482524 0.032984767 0.019309198
-0.07339688 0.0274454 0.0069032004 0.009824598 -0.004840281 -0.03828425 -0.0077644954 0.0015105201
0.04248677 -0.029942488 0.061244793 0.04209168 0.00088801526 0.03545602 -0.02435077 -0.002552233
0.024088107 0.014413468 0.012512453 0.0016999823 -0.034932964 -0.03548654 -0.039022066 0.038133524
0.003934071 0.05567307 -0.0146662565 -0.031660777 0.041629974 -0.020399837 0.02458232 0.04919438
-0.020362813 -0.003479625 -0.043425888 0.06100739 -0.005859074 0.018828861 -0.036389973 0.012165556
0.061581247 -0.02584937 0.045262642 -0.021686604 -0.0013424306 -0.020842781 0.005096176 0.033476
0.0013595537 -0.038202208 0.019862166 -0.02644206 -0.040269192 0.00063361815 0.05154126 -0.0125578875
0.020918166 0.0017337982 0.029013595 -0.041897036 -0.024527015 0.003206884 -0.018451154 0.009145817
0.0103122685 0.045045007 -0.05318187 0.01773094 -0.013887788 0.044128887 -0.0488519 -0.021216953
0.026828935 0.071828 -0.0151162855 0.04527259 0.04415725 0.025064161 -0.021565894 -0.028666291
0.02564015 0.023640346 0.021134047 0.0125966845 0.009773008 -0.031610228 0.04252194 -0.039804634
-0.014143504 -0.006255513 7.344383e-05 0.077246845 -0.0214434 0.029069118 -0.019715816 -0.044281952
-0.037380535 -0.069557674 -0.0012151928 -0.030654527 -0.033073172 0.039010912 -0.0029559901 0.018975873
0.031664032 0.039328765 0.000101793834 0.025548058 -0.019184392 0.019153653 -0.04340643 0.017831383
-0.0312876 -0.007914984 0.023836682 0.025149383 -0.037904117 -0.029585786 -0.016416188 -0.019798178
-0.050722096 -0.002014613 0.0032967639 -0.015187834 0.024609199 0.038004853 0.0054959143 0.008115796
-0.0075191753 -0.0018750321 0.0070815776 0.019686278 -0.035767812 -0.015183271 0.020988366 -0.0015136349
0.020568416 -0.03878078 -0.0010048555 0.013026311 -0.02162688 -0.04364934 0.04394245 -0.014776876
0.010851867 0.023391588 0.032442022 -0.028623428 -0.010530004 -0.0036375884 0.04757548 -0.005036611
-0.035942707 0.00371253 0.029002862 0.050153043 -0.00070153613 0.00828795 -0.046555772 0.03794889
0.001704208 -0.041885454 -0.04258895 0.08784252 -0.030200128 0.027580507 0.020420413 -0.006142664
-0.012808014 0.0018540346 -0.033519033 -0.03376244 0.020653078 0.016145738 -0.041352265 0.001484091
-0.0018407006 0.0016528219 0.033273667 0.01852575 -0.023984833 0.011894808 0.023042032 0.018591749

ConvTransp2D.3.bias f4 [24]
00000000: e619 e93b e8e3 8fbc cccb 3ebd 435b 9c3c
00000010: 184b 44bd 3d45 123c ed04 a7bc d63d 053d
00000020: de0c 293d 8c48 01bd 0434 093d 9cb8 2f3d
00000030: 331e a93c ed26 2e3d 4923 bd39 b852 18bd
00000040: 788b d53c 3769 553d 6626 febc 3f7c 453d
00000050: fd75 253d 8aad 8fbc f535 dcbb e455 153a
0.007113683 -0.017564729 -0.046581075 0.019086486 -0.047923177 0.0089276405 -0.020388091 0.032529674
0.041272037 -0.031563327 0.03349687 0.042900667 0.020644283 0.04251759 0.0003607518 -0.03718826
0.02606748 0.052102294 -0.03102417 0.048214193 0.040395726 -0.017538805 -0.0067202994 0.00056966976

ConvTransp2D.4.weight f4 [24]
00000000: 31e2 7a3f 262f 733f 66c8 7d3f 9f2e 803f
00000010: cd33 823f 6c02 753f e18c 813f 0a29 823f
00000020: a331 763f 1d1e 7a3f c293 7f3f 2cd7 813f
00000030: a879 7e3f d3ce 7f3f b405 7b3f 7ba8 7d3f
00000040: 72c0 803f 3281 723f e2c0 843f 69d8 7c3f
00000050: 44ca 703f 2a5e 8c3f fc35 7f3f f7f9 813f
0.9800139 0.9499382 0.9913391 1.0014228 1.0172058 0.9570682 1.0121118 1.0168774
0.9616949 0.977022 0.99834836 1.014379 0.9940438 0.99924964 0.9805558 0.99085206
1.005873 0.94728386 1.0371363 0.98767716 0.9405863 1.0966237 0.9969175 1.0154408

ConvTransp2D.4.bias f4 [24]
00000000: 17bf 04be f78f 00bd 1d6a 8dbb 8fb2 9bbd
00000010: d31a 34bd 2133 a8bd 5e36 87bd 8c01 58bd
00000020: 694b b4bd 8f64 80bd b284 37bd b999 c6bd
00000030: 4f6d 37bc 55d3 59bd 9279 00bd 65ba e7bd
00000040: e9b3 8bbd bc57 e9bd b54b 89bc 3496 8dbd
00000050: ee48 a8bd 8e6e d2bd 9123 37bd e203 61bd
-0.1296352 -0.031387296 -0.004315628 -0.07602417 -0.043970894 -0.08212877 -0.066021666 -0.05273585
-0.08803446 -0.0626918 -0.044804282 -0.09697289 -0.011195495 -0.053180058 -0.03136594 -0.11314849
-0.068214245 -0.11393687 -0.016759733 -0.069134146 -0.08217035 -0.10274993 -0.044711653 -0.054935344

ConvTransp2D.4.running_mean f4 [24]
00000000: b9e8 cabc f8aa 243e 3e78 a7bd 5c67 423b
00000010: 2933 73bd d0be 833d 9132 8f3c c335 d23c
00000020: e768 ad3d 982d a5bc cd5f 0bbd d462 c83c
00000030: 25a1 af3b b8bd 4d3e 5980 8b3b 3433 b5bd
00000040: c0ea 983d 8b29 a03d 8c4c 543b d6d8 e83d
00000050: b4c3 a73d 081f 89bd 91d2 eabb 1e76 81bd
-0.024769174 0.16080844 -0.08177231 0.0029663658 -0.059374962 0.06432879 0.017480167 0.025660401
0.08467274 -0.020163342 -0.03402691 0.024461187 0.005359786 0.20091903 0.0042572436 -0.08847657
0.0746665 0.07820424 0.0032394258 0.11369483 0.08191624 -0.06695372 -0.0071662148 -0.06321357

ConvTransp2D.4.running_var f4 [24]
00000000: 8824 3d3d 6ac3 8a3d 8f30 633d e17e 3f3d
00000010: ac25 2c3d 0983 493d f715 373d a7c6 313d
00000020: 9d0d 403d 1ec8 603d 7014 4a3d 614f 4e3d
00000030: a286 503d 8dc9 913d 2258 4b3d d595 463d
00000040: 4b83 2d3d 6ab2 7e3d e467 243d e875 313d
00000050: e362 5a3d 6587 db3c d0cd 5a3d b7a7 1b3d
0.046177417 0.067755535 0.05546623 0.04675186 0.042028114 0.04919723 0.04469868 0.04340234
0.046887983 0.054878347 0.049335897 0.05036867 0.050909646 0.07118521 0.049644597 0.048482735
0.04236154 0.062181868 0.04013814 0.043325335 0.053316962 0.02679796 0.053418934 0.038001742

ConvTransp2D.6.weight f4 [24, 12, 4, 4]
00000000: 4cb7 193c 3062 ee3c 73f6 d23b 32f6 d7ba
00000010: d1b3 353d 39f5 4c3c 4b3d 153d ed6d c53c
00000020: c386 3c3c 0fb2 4fbc 741a f73c af86 81bc
00000030: 949e 0cbc 7ea0 453d 62d0 dbbc daee cd3b
00000040: a346 15bc f7c2 b33b 3751 233d 0790 653d
00000050: 4e40 55bc f1a5 2abd deed 753c a41f 9b3d
00000060: 0df1 f9bc 00c5 7abc 57f9 aabd 98ec 823b
00000070: d8d1 fe3c 9ea9 4abc 8e73 34bb 327c 4bbb
00000080: cc97 333c 7edb 533d 199a 2bbd 1cca ffbc
00000090: 5d38 3dbc 153a 02be d812 9abb c555 f9bc
000000a0: 73ec 1c3d 19a3 fd3c 8635 103d d35b 603c
000000b0: 9dfa c5bd 5cd4 d23c 6598 953d db57 52bc
000000c0: a97c 77bd b8cc 0f3d d714 6b3c 085d 683c
000000d0: 234a 6fbc 8e1e abbc 036c 17be 7c10 adbb
000000e0: 2f78 bebb ad9b 88bd 2794 46bd d499 553d
000000f0: 0a3e 67bd 09e6 82bb 3357 263c c0ad 463c
00000100: 3488 c73b 75a0 8f3c 45ab b13c 6ac5 da3c
00000110: e5bd 263c f910 4b3d 3048 783d aa7b 903d
00000120: 90cb 463d d6af 6f3d c91f 913d 1e8d 833d
00000130: 0ff3 4a3d 50b8 b53d c7c1 2a3d d70a 5a3d
00000140: 1355 c23c 157e a73c daee bc3c 98ad d0bc
00000150: 8c15 f6bd b905 8ebd 6624 b83c c836 4fbd
00000160: 14be 853d 11af 61bd 3a54 413c ea7c dbba
00000170: c0aa 913a 07e5 123d 9334 e73c 556a 523c
00000180: 41b6 45bc 8823 753c 8437 2cbd af90 bc3c
00000190: 1eb3 d0bc 0be2 76bd ee42 13bd a746 0f3d
000001a0: b782 b3bc 2d5e 08bd ddc7 98bd 0470 883c
000001b0: be05 f1bd 3458 0fbd f0ad a5bd d0a9 61bd
000001c0: b1df ce3c e48c d03c 0bcc d53c 5948 883d
000001d0: fd05 423c 7386 663d 49ad 873d b59a a53d
000001e0: 1d9b 593d e71a 7e3d ab35 993d 8ef5 af3d
000001f0: 1545 683c d25a 723d 2f24 2c3d 5fc6 8e3d
00000200: 9659 21bd 84c4 8ebc cffa 423d 5630 493d
00000210: d1de 84bc 5231 d33c c21c 63bc 6a1d 9e3d
00000220: d935 803c 6b1f 603d c6c0 e53c e098 a93d
00000230: 33d4 613c c98a 623c 85a5 b43c 048d ce3d
00000240: 096b 843c f5c8 b43c 7894 213c 3b93 2dbc
00000250: 3779 2dbb 254c bfbb 11ef 34bd fc75 743c
00000260: adc8 7dbc 4184 8e3c 440a e03b c815 8abc
00000270: 809b e9bc 855f 86bd 5d2c b9bb 48a6 333d
00000280: 8b44 b3bc e8d2 1bbc 8ebe 55bb ac1b 153d
00000290: f5e5 40bd 006d 67bd feed 093d b0f2 ee3c
000002a0: ae0b 3d3d 4c8e bf3c c221 cc3c 792e ea3d
000002b0: b0ac e73a 248d 5a3c 6450 e7bd e196 bc3d
000002c0: e178 983d 630c 2a3d 5338 8c3d c2d8 a0bb
000002d0: c248 ae3c d765 0d3d 28f1 c6bd a639 063d
000002e0: bf4c 8b3c 8d22 683b 8122 1a3d 0a72 0d3c
000002f0: b81d 79bd d8f5 953d ed6f 093c c04a 133e
00000300: 53c9 9c3b 7219 5dbd 0f04 a8bc bca3 88bd
00000310: 4b03 50bd 264a 4bbc 31b5 1dbd fd99 cbbd
00000320: 8a24 8a3c 19a0 83bd a92c a13b 197d 50bd
00000330: 8759 c03b 854b 3cbd d36f 3bbd 980e 1f3d
00000340: 3696 babd 5d73 f1bc b75d f4ba 332a 36bd
00000350: 218f debc 9316 94bc 3050 05bd b006 c4bc
00000360: 89ab a9bc d7df 063d 4888 09bd 5851 a43a
00000370: 17c1 463d 48fe 82bc 680c ffbc 0c40 c7bd
00000380: c2df cdba b155 29bd 8def 95bd 88e3 a63d
00000390: 3005 a6bb df27 5abc 77b6 66bd fb66 ba3c
000003a0: 42d4 e6ba fb00 0cbc 5ca6 183d f057 9e3a
000003b0: 2f36 38bc 6603 e33c 491f 813c f328 a23b
000003c0: cef7 3bbc 87d3 87bd 71ed 06bd fedf 273d
000003d0: 9b58 12bd 07a7 10bd 9639 a9bc 9d22 7bbd
000003e0: a3ca f33b 5803 17bc 089c bebd 6afc c8bd
000003f0: aab6 82bd 97d1 3d3c e0b7 2b3b d4d7 9aba
0.00938208 0.029099554 0.0064380704 -0.001647657 0.04436094 0.0125096375 0.036435407 0.024100268
0.011506739 -0.01267673 0.030163981 -0.015811292 -0.00858273 0.04824876 -0.026832763 0.006284577
-0.009111079 0.005485888 0.039872374 0.05604556 -0.01301582 -0.04166216 0.015010325 0.07574394
-0.03051045 -0.0153057575 -0.08348339 0.0039954893 0.03110592 -0.012369541 -0.0027534696 -0.0031049368
0.010961484 0.051722996 -0.041895006 -0.031224303 -0.011549083 -0.12717469 -0.0047019534 -0.030436406
0.038311433 0.03096156 0.035207294 0.013693768 -0.09666941 0.025736026 0.073044576 -0.012838329
-0.06042162 0.035107344 0.01434823 0.014182337 -0.014605078 -0.020888593 -0.14787297 -0.005281506
-0.005812667 -0.06670318 -0.048481133 0.052148655 -0.05645565 -0.0039947075 0.010152626 0.012126386
0.0060892347 0.017532567 0.021688113 0.026705462 0.01017711 0.049576733 0.06061572 0.07054837
0.048533976 0.0585173 0.07086141 0.064234 0.049548205 0.088730454 0.041688707 0.053232994
0.023722207 0.020445863 0.023063112 -0.025473401 -0.120158285 -0.06934685 0.022478294 -0.050589353
0.06530395 -0.055098597 0.011799866 -0.0016745601 0.001111351 0.03586295 0.028223312 0.012842734
-0.0120673785 0.014962085 -0.04204513 0.02301821 -0.025476035 -0.060274165 -0.0359525 0.03497949
-0.021912916 -0.033292938 -0.07459996 0.016654976 -0.11768673 -0.034996226 -0.080898166 -0.055093586
0.025253149 0.025457807 0.026098272 0.06654424 0.011842248 0.056280565 0.066248484 0.08086149
0.053126443 0.062037375 0.074809395 0.08591758 0.014176627 0.059168644 0.042026695 0.0697143
-0.039392076 -0.01742769 0.04760247 0.049118362 -0.016219528 0.025780354 -0.013861837 0.07720454
0.015650677 0.054717463 0.028046023 0.08281112 0.013783502 0.013827034 0.022051582 0.1008549
0.01616432 0.02206848 0.009862058 -0.0105941845 -0.0026469955 -0.0058379346 -0.044173304 0.014920708
-0.015489739 0.017397048 0.0068371613 -0.01685609 -0.028516531 -0.06561188 -0.0056510405 0.04385975
-0.02188327 -0.009510733 -0.00326148 0.036403343 -0.047094304 -0.056500435 0.033674233 0.029168457
0.046153717 0.023383282 0.02491844 0.11434645 0.0017675366 0.013339315 -0.1129463 0.09208465
0.07444931 0.04151572 0.068466805 -0.004908652 0.021274928 0.03452095 -0.09713966 0.03276982
0.017004369 0.0035420984 0.03763056 0.008633146 -0.060819358 0.073222816 0.008388502 0.14383984
0.004784742 -0.053979345 -0.020509748 -0.06671855 -0.05078439 -0.012407815 -0.038502876 -0.0994148
0.016863126 -0.064270206 0.004918654 -0.050900552 0.0058700475 -0.04597046 -0.04576094 0.038832277
-0.09110682 -0.029473955 -0.0018643652 -0.044473838 -0.027167859 -0.01807717 -0.032547176 -0.02392897
-0.020711677 0.032928314 -0.033577234 0.0012536449 0.04852399 -0.015990391 -0.031133845 -0.09729013
-0.0015706944 -0.041341487 -0.07321081 0.08148867 -0.0050665364 -0.01331517 -0.056326356 0.022754183
-0.0017610865 -0.008545156 0.037268028 0.0012080651 -0.011243387 0.027711581 0.015761988 0.004948729
-0.011472655 -0.066321425 -0.032941286 0.0409851 -0.035729032 -0.03531554 -0.020657342 -0.061312307
0.0074399277 -0.009217106 -0.09307104 -0.09813769 -0.06382497 0.011585615 0.0026202127 -0.0011813589

ConvTransp2D.6.bias f4 [12]
00000000: f20c 6e3d 8e8d 1fbd 696d 46bd 60a2 46bd
00000010: 36a4 cd3c 4398 4dbc 165d c0bc cfdc 9b3b
00000020: 11dc 11bc 11b3 503d 4107 93bd 04a9 863c
0.058117814 -0.038953356 -0.048444185 -0.048494697 0.025102716 -0.012548509 -0.023481887 0.004756547
-0.008902566 0.05095202 -0.07179118 0.016438015

ConvTransp2D.7.weight f4 [12]
00000000: bc52 8d3f 1ef9 663f 1acb 833f cae9 6e3f
00000010: 034f a13f c0c4 523f a4d6 643f 01d1 9f3f
00000020: d837 8d3f 00ae 7b3f d3c7 7a3f 7dbc 6f3f
1.1040874 0.9022387 1.0296357 0.93325484 1.2602237 0.82331467 0.89390016 1.2485658
1.1032667 0.9831238 0.9796116 0.93646985

ConvTransp2D.7.bias f4 [12]
00000000: 0873 16bd 856b 45bd f5b4 853d eb79 643b
00000010: 3bbe f73c 788c 4fbd ca03 853d de89 39bd
00000020: 076e 093d 1040 a6bd c8d7 fe3c 9fb6 463d
-0.036730796 -0.04819824 0.065286554 0.0034862708 0.030242076 -0.05067107 0.06494863 -0.045297496
0.033552196 -0.08117688 0.031108752 0.048514005

ConvTransp2D.7.running_mean f4 [12]
00000000: 50fd 54bc 3d5a 023e 101f 91bd 28c9 9dbe
00000010: 284c 50bc 6fd7 5cbe aceb 18be 4629 1fbd
00000020: 325d 00be d548 96bd 2803 57be 986e 53bd
-0.0129998475 0.12729736 -0.07086003 -0.30817533 -0.01271347 -0.21566556 -0.14933652 -0.03885772
-0.12535551 -0.0733811 -0.20997298 -0.051619142

ConvTransp2D.7.running_var f4 [12]
00000000: e363 403d 868d 923d 13e2 593d 156d cb3e
00000010: 0b92 033d 2bfd 193f 110d 033e 12d7 0a3d
00000020: 1d0c 403d acf6 453d 2ef6 183e 2f77 3e3e
0.04697026 0.071559 0.053194117 0.3973166 0.0321217 0.6015193 0.12797953 0.033896513
0.046886552 0.048330948 0.1493766 0.18600152

ConvTransp2D.9.weight f4 [12, 1, 7, 7]
00000000: 24e7 4abc a8eb 093c cbe8 373d 33ba fa3a
00000010: 4cd2 0fbe a62d 71be 5e3c 31be 2884 c9b9
00000020: ea44 883d de73 ce3d 2980 9cbc e5ca 64be
00000030: 8f3f c4be c429 91be 0813 003d f9be c63d
00000040: 9a5e 9e3d b8da 94bc 4a99 f6bd c954 74be
00000050: 4a5d 47be bc7c 6f3d aeb3 4a3d 61bd f7bb
00000060: af95 683b a844 473b e0c1 9bbd 0985 29bd
00000070: 661b 963d 4ac4 383c c406 5bbd da58 c3bb
00000080: dfca 90bc 69dd 69bd 94c3 babc 132c 763d
00000090: 9f21 663d bff1 443d e5e7 e33c 5c6c 15bd
000000a0: dacf 74bd 8287 27bd 0938 2a3d ddf1 903d
000000b0: 1816 a43d eb24 f63c d871 eabb 0373 7ebc
000000c0: 406b cbbc 3a05 8a3c 3a54 8f3b c181 ddbc
000000d0: 8327 4cbd 67e6 57bd 4081 64bd 02d4 02bd
000000e0: 166b cdbc 30ca 71bd e306 dfbd 2eae f4bd
000000f0: 357e 02be 5831 f5bd bc72 39bd 94aa 49bd
00000100: 15fc b1bd 0453 a8bd af37 18bd 7f0b abbd
00000110: 15fe fdbd 1235 46bd 96ea e6bb 8942 02bd
00000120: ef0d f6bc beea 433c 2d35 a8bd 27ae f1bd
00000130: de49 23bd 4a93 df3c b9e2 813c 5946 9e3c
00000140: 2553 843c 0336 b0bd fd7c acbd 4a08 5ebb
00000150: 3713 683d 4a65 d53d 2b28 043e 585d 9a3d
00000160: fd03 80bb 4346 153d b94a 023d bc14 823d
00000170: 76a8 c93d fab0 eb3d 67c6 a93d a16d 023d
00000180: 3376 333d b78e ef3c ec30 2f3c cfbd 0b3b
00000190: 84c5 d8bc 2b10 47bd 1f1b 0cbd 6b43 a6b9
000001a0: 02c0 a93b 87d0 e73b b8a4 a9bc 8e8d 46bd
000001b0: 8243 98bd eb04 3aba 366b 713d cbfc 123d
000001c0: 8558 bcbb cea6 8abc ee52 93b9 be76 443d
000001d0: cf04 253e 069d 2b3e dd66 903d 0086 553c
000001e0: dbe5 223d f3ed d43d bd9c 5e3e 59e3 8f3e
000001f0: d06f 4c3e 8588 483d e02a e23c dfc6 a93d
00000200: a43f e43d a258 2c3e b1e1 3e3e 6a75 e83d
00000210: 021f 943c 9e31 0e3d db89 263d 7d2c 363c
00000220: 81d4 78bb 62b1 8cbc 6c84 bdbb 2235 9ebc
00000230: 3053 d3bb 66dc 5cbc d23e 3dbd e9f7 63bd
00000240: e62a 92bd d1d7 44bd ec03 bbbc ed8a 3f3d
00000250: e1e7 883d 84fd bc3c 04c2 9abd 520f 00be
00000260: c7ae a8bd 289d 163c c647 033d 8af6 4f3d
00000270: 24b4 81bb 1f3f 51bd f26a 15be 9610 6dbd
00000280: 96a5 593b cac3 d73d 15c4 c03d dfdc 813d
00000290: 6ed2 9e3d 5d6d cabd 7498 f6bc bd3a 0739
000002a0: ee11 813d 67b7 09bd 95e6 853d 37e2 8f3d
000002b0: ea98 c5bd 43ed 453d 034f c93c 8f82 bc3c
000002c0: 090a 76bd 6870 973b f2a7 843d a93c d4bc
000002d0: 0b73 243d 1d9a 30bc 57f5 6a3d 56e8 e83c
000002e0: 74f5 783d 29aa 953d 9f9c e53d ad28 e93c
000002f0: 696f 2ebd 9c82 873d a272 a33d 2202 fa3d
00000300: 768e 063e 0d1b d43d eb05 4f3d a405 b8bc
00000310: 1237 e1bc e35d 23bd ca09 87bd 7c04 14bd
00000320: f163 833d 8fe0 e13d 534f 9c3d 20ec b6bc
00000330: 924b dabd 15f4 15be 48a6 01bd 7b69 da3d
00000340: 9cc5 1b3e 9381 0b3e d1ec 50bd 6e9d 37be
00000350: e85d 08be 7e5c 153d d4c0 e63c bc80 993d
00000360: 8b6c 4c3d 8fac 09be f6cc 87be 2547 c2bd
00000370: 8bc6 debc 6467 82bd 71ae 9ebd 776c 80be
00000380: 0e7c 6fbe 99c5 a9be d018 3ebe 1607 e2bd
00000390: e71d dcbb 1601 89be 8423 c2be c5d7 5ebe
000003a0: f791 b4be 645e a4be d5a1 1fbe 952a f4bd
000003b0: 6fe5 b1be ad07 f0bd 433a ccbd f079 4bbe
000003c0: e658 5dbe 8f6e a3bd 98db ffbd 14c2 cebd
000003d0: 3997 fc3c 4f90 883c febe 4b3a 3aad 9abd
000003e0: 5f25 a5bd 5256 693b 4ad4 d93d 892e da3d
000003f0: 24d8 5e3d e7dc d33c 1820 acbd f43f e8bb
-0.01238421 0.008418001 0.044899743 0.0019128978 -0.14045066 -0.2355257 -0.17308185 -0.00038436172
0.06653769 0.10080694 -0.01910408 -0.22343023 -0.3832974 -0.28352177 0.03126815 0.09704394
0.077328876 -0.0181707 -0.12040956 -0.23860468 -0.1946918 0.058468565 0.049487762 -0.0075604175
0.003548961 0.0030405913 -0.07605338 -0.041386638 0.073294446 0.011277268 -0.05347325 -0.0059615197
-0.017674861 -0.05709592 -0.022798337 0.060100626 0.056184407 0.04808211 0.027820537 -0.036480293
-0.059768535 -0.040900715 0.041557346 0.07077382 0.080120265 0.0300469 -0.0071546845 -0.015530351
-0.024831414 0.016848195 0.0043740543 -0.02703941 -0.04984237 -0.052709963 -0.055787325 -0.031940468
-0.025075477 -0.05903071 -0.108899854 -0.11947285 -0.12743457 -0.11972302 -0.045275435 -0.04923494
-0.08690659 -0.08218959 -0.03716248 -0.08351802 -0.12401978 -0.048390456 -0.007047008 -0.031801734
-0.03003594 0.011957822 -0.082132675 -0.11800795 -0.039865367 0.027291913 0.01585518 0.019320654
0.016152928 -0.08604052 -0.08422277 -0.0033879452 0.05665895 0.1041971 0.12905948 0.07537335
-0.0039067254 0.03644396 0.031809542 0.06351611 0.098465845 0.11508365 0.08289795 0.03184283
0.043813895 0.029242856 0.010692816 0.0021322852 -0.02646137 -0.048599403 -0.034205552 -0.00031712218
0.00518036 0.007074419 -0.020708427 -0.04847484 -0.07434751 -0.000709607 0.058940135 0.035885613
-0.005747857 -0.016925242 -0.00028099812 0.047964804 0.16115116 0.16759118 0.070508696 0.013032436
0.03976999 0.10396948 0.21739478 0.2810314 0.19964528 0.04895832 0.027608335 0.08289885
0.11144951 0.16830686 0.18640782 0.1135052 0.018081192 0.034715287 0.040658813 0.011119005
-0.003796846 -0.017174426 -0.005783608 -0.019312445 -0.0064491257 -0.013480281 -0.04620249 -0.055656347
-0.071370885 -0.04805738 -0.022829019 0.04676335 0.066848524 0.023070104 -0.07556537 -0.12505844
-0.08236461 0.009192742 0.03205087 0.050772227 -0.003958242 -0.051085588 -0.14591578 -0.057877146
0.003321027 0.10535391 0.094124 0.06340956 0.0775498 -0.09884141 -0.030101992 0.00012896485
0.06302248 -0.03362217 0.06538121 0.07025569 -0.09648307 0.048321974 0.024573809 0.023011474
-0.060068164 0.004621554 0.064773455 -0.025907831 0.040148776 -0.010778931 0.05736288 0.028431099
0.060780957 0.07307846 0.11211514 0.028461779 -0.042586718 0.06616709 0.07980849 0.12207438
0.13140282 0.10356722 0.050542753 -0.022463627 -0.02749208 -0.03988446 -0.06593664 -0.03613709
0.06415547 0.11029159 0.076323174 -0.02232939 -0.10658945 -0.14643891 -0.03165272 0.1066465
0.152121 0.13623647 -0.051007096 -0.17931148 -0.13317072 0.03646516 0.02816812 0.07495257
0.049908202 -0.13444732 -0.2652356 -0.09486226 -0.027194282 -0.063673764 -0.07748116 -0.25082752
-0.23387167 -0.33158568 -0.18564153 -0.11036508 -0.006717432 -0.2675864 -0.3791772 -0.21761997
-0.35267612 -0.32103264 -0.15589078 -0.119221844 -0.34745356 -0.11720214 -0.0997205 -0.19870734
-0.21615943 -0.07980072 -0.12493056 -0.10095611 0.030833827 0.016670374 0.00077722955 -0.075525716
-0.080637686 0.003560443 0.10636194 0.10653407 0.054405347 0.02586217 -0.08404559 -0.007087702

embedding.weight f4 [10, 784]
00000000: 10db c0be a9c6 4e3d 4c32 fbbf 1acb 17c0
00000010: d628 85be 4ca7 6abf 29b7 d33f 9e35 9c3e
00000020: 195d a9bf bc5b 0e3f 532b 823f fd9c 98be
00000030: 856c 773f 14a2 75bf fe82 f1be 420d 7e3d
00000040: f45f b3bf 9f78 a2bf 1bbb 823e 0341 50bf
00000050: 768a 503f 1cd7 2cbd 0bd0 843f e8c1 d3bc
00000060: 4fb1 b7bb 10ca a83e e2a4 023f ca75 e73e
00000070: 732c 8dbf 324a acbe b827 513f c01f cfbf
00000080: 9e4f a0bf 115d f9be 9e9d 73be d162 043e
00000090: 17eb c1be d2e2 04be 123a 17bf 9411 973f
000000a0: c5ec c8bf 7ee4 05be 4112 40be d3b3 9dbf
000000b0: 65ee 3fbf 7795 d6bf 3684 bc3f debb a73f
000000c0: 0c4b 653f 1a4e c53f a7a4 50bd 64eb 4bbf
000000d0: 5877 bbbd c4a2 c2bf c80b 303f 7b18 b0bf
000000e0: 6b50 4dbf 8ca9 4cbf ec8a 98be da49 b43e
000000f0: f07e 6f3f a5aa 093f ef39 f4bf e01b d2bf
00000100: ca10 533f f382 553f 5b82 003e 266f 2b3f
00000110: 7788 113e 66c3 eabf a6c9 b6bb 713d b43e
00000120: 5f5c 33bf 923c 1abf dda9 45bd a12c 86bf
00000130: 1855 4d3f 47e1 4a3e b2d4 29bf 6155 703f
00000140: 2436 853f bdd3 3c3e 44d5 b53f 09c7 fbbf
00000150: 8548 12bf 6586 cebf 8379 353f 2691 edbe
00000160: 0317 9ebd c776 1fbe 4940 1cbe 8d83 16bf
00000170: 1284 173f b012 9abe 0fa6 8bbf 29d0 843f
00000180: e599 fb3c 3af6 203f 913a 8bbe 4acf ba3d
00000190: 0234 5a3e b27b a03f 1492 69bf e516 ab3e
000001a0: 7278 5abf 917b dc3f 6b9c 573f 016a 3e40
000001b0: 8adc 903e 34b2 9dbd 4bcd 933f aeb2 9ebf
000001c0: 1cb9 3040 af4e e8bd 1150 cbbe d278 24bf
000001d0: 4298 e83f ace1 903d 3b03 de3f eba4 a2be
000001e0: 602c bbbf a058 d5bf 520d 38bf e64e 9b3e
000001f0: 35b1 413f 823c c9be 4e3d 953e ceae 57bf
00000200: b07d ddbf cb1c 413f b062 90be b0e3 b5be
00000210: d90c 30bf 8c73 0f3e eafe 973f 71df 89be
00000220: 0329 7b3f 7628 ab3f c331 9b3f 6e99 a6bf
00000230: ca90 833f 88e9 30be be2c 1cbf 382c 81bc
00000240: 35ea 25bf 8d3b f8be c163 b1bf 07b0 57bf
00000250: 9fa2 c0bf ccf6 3ebb 72bc 553f f96e 0a3e
00000260: 0efd 303f 1067 833f 11b1 c1bf 2efa 36be
00000270: 53a5 f2bf 6c2d 28bf 3e99 bc3f 29d2 9bbf
00000280: 84b3 ca3e b162 8e3f 0d1a 47be 3004 7bbf
00000290: 8372 00bf fb85 583f 7c60 97bd f8ff a93f
000002a0: 22fd e83d 985d b6bd 8e86 d9bf ef96 3e3f
000002b0: 6bcc 4b3d 59c9 84bf 999a 443e 5137 a73f
000002c0: 7976 4fbf e3d1 d2bf 7d29 d43e b56b 98bf
000002d0: fdbf 983f c556 a6bf 4c41 383e c90e b43f
000002e0: 38a8 b13f f095 5e3f feac cf3e 94d0 953f
000002f0: 0c22 d5bf 30ff 363f 1d30 9f3f 2850 b33f
00000300: c1d5 c9be f0ca afbf f299 2f3f 2912 2ebf
00000310: 64db 753f 6d03 8dbe e6f5 95bf 86e3 b4bf
00000320: b5b6 d63f 3215 af3e 2873 48bf 2075 b3be
00000330: fe00 b43f 87c0 b3bd 354d f73e b5ff 023f
00000340: a424 7fbf 4a14 52be 8aea dcbf ee47 2fbf
00000350: 0557 dc3e 9192 3cbd fbd1 b33f b495 e13e
00000360: a0c0 823f a132 2a3f 5803 49bf e717 933d
00000370: 160f febe 2216 263e df80 ed3d f2fd d93c
00000380: ffb5 873f 0c3e 1340 b962 cc3f c268 66bf
00000390: 0a56 e1bf 9db3 943d f911 0c3f 3578 963f
000003a0: c34e 053e b11a 8a3f 3cb8 9a3e 83c4 573f
000003b0: 47ab b43d 7396 a0bf d29d 5f3f afd7 043f
000003c0: fd3c f4be 9b11 873f 1ab7 f4be 12b7 933d
000003d0: 47ff 89be 8c54 9fbf b941 9ebf 42e0 68be
000003e0: c262 aabe 8775 bc3e 709d 453e 16e0 bdbf
000003f0: 3997 b73e 7b9c 1a3f f255 87bf f1ac 3b3e
-0.3766713 0.050482426 -1.9624724 -2.3717713 -0.26007718 -0.91661525 1.6540271 0.30509657
-1.3231536 0.55608726 1.0169472 -0.29807273 0.9664996 -0.95950437 -0.47170252 0.062024362
-1.4013658 -1.2693061 0.25533375 -0.813492 0.81461275 -0.04219733 1.037599 -0.025849298
-0.0056058536 0.3296666 0.5103284 0.45207053 -1.102919 -0.33650357 0.8170123 -1.6181564
-1.2524297 -0.48703817 -0.23790595 0.1292832 -0.37874672 -0.1297715 -0.59072983 1.180224
-1.5697256 -0.13075444 -0.18756963 -1.2320503 -0.74973136 -1.6764363 1.4727848 1.3104208
0.8956764 1.541446 -0.050938275 -0.7965605 -0.091536224 -1.5205922 0.68767977 -1.3757471
-0.80200833 -0.7994621 -0.2979349 0.35212594 0.93553066 0.5377601 -1.908018 -1.6414757
0.82447493 0.8340294 0.12549727 0.66966474 0.14212213 -1.8340881 -0.0055782376 0.35203126
-0.7006282 -0.6024867 -0.048257697 -1.048237 0.8020797 0.19812499 -0.6634017 0.9388028
1.0407147 0.18440147 1.4205709 -1.9670116 -0.57141906 -1.6134764 0.7088854 -0.46399802
-0.07719233 -0.15572654 -0.15258898 -0.5879448 0.591859 -0.30092382 -1.0910052 1.0376025
0.030713031 0.6287571 -0.2719312 0.091215685 0.21308902 1.2537749 -0.9123852 0.33415905
-0.85340035 1.722521 0.8422305 2.97522 0.28293258 -0.07700005 1.1547025 -1.2398279
2.7612982 -0.11343133 -0.39709523 -0.6424686 1.8171465 0.070742935 1.7344736 -0.31766447
-1.4622917 -1.6667671 -0.71895325 0.30333632 0.7566102 -0.39303976 0.29148334 -0.84251106
-1.7303982 0.7543456 -0.28200293 -0.35525274 -0.68769604 0.14008921 1.1874669 -0.26928285
0.98109454 1.3371723 1.2124561 -1.3015573 1.0278561 -0.17276585 -0.6100577 -0.015768155
-0.64810497 -0.48482934 -1.3858567 -0.8425297 -1.5049628 -0.0029138802 0.8349067 0.13518895
0.6913613 1.0265827 -1.5132161 -0.17868873 -1.8956703 -0.6569431 1.4734266 -1.2173511
0.39590085 1.1123868 -0.19443531 -0.98053265 -0.5017473 0.8457944 -0.0739145 1.328124
0.11376406 -0.0890457 -1.6994188 0.74449056 0.049755495 -1.0373946 0.191996 1.3063756
-0.8104015 -1.6470302 0.41437903 -1.190787 1.193359 -1.299523 0.17993659 1.4067012
1.3879461 0.86947536 0.4056167 1.1704278 -1.6651015 0.71483135 1.2436558 1.4008837
-0.39420894 -1.3733807 0.68594277 -0.6799646 0.9603789 -0.27541676 -1.1715667 -1.4131935
1.6774508 0.34195858 -0.78300714 -0.35050297 1.4062803 -0.08776956 0.48301092 0.5117143
-0.99665284 -0.20515552 -1.7259076 -0.6846913 0.4303514 -0.046038214 1.4048456 0.44059527
1.0215034 0.66483504 -0.7852073 0.071822934 -0.49620885 0.1621938 0.11596846 0.026610348
1.0602416 2.300662 1.5967628 -0.900036 -1.7604382 0.07260821 0.54714924 1.1755434
0.13018326 1.0789396 0.30218685 0.8428423 0.08821731 -1.2545913 0.8735019 0.5189161
-0.4770278 1.0552248 -0.47795945 0.07212652 -0.26952574 -1.2447677 -1.2363807 -0.22741798
-0.3327847 0.36808416 0.19298339 -1.4834011 0.3585756 0.6039502 -1.0573103 0.1832769

CNN.0.weight f4 [32, 2, 5, 5]
00000000: 84e1 debb 444f 223e a727 bb3d 16f0 a2bd
00000010: 531b 56bd 6fab d13d d602 48be 5cd4 d2bd
00000020: 6e62 213b f473 dc3d 6772 0d3e 8dd9 7bbe
00000030: f95c 81bd 295f 0b3e 59a1 3bbc 9826 c33c
00000040: 4a2f 7fbb c5ff 603d b160 1bbe 46d8 4bbc
00000050: 8e5c 9d3c a5d4 a1bd b7d3 f2bd 0693 8fbd
00000060: 3ed2 533d 2d15 a73d d67c d0bc 82af 21bd
00000070: fb33 203e 5a1a 883c 3a3b d03d d9a1 bd3d
00000080: 7734 803d f8e9 18be abc7 343d f1ed 163e
00000090: 14cb 123d 2d02 123e 7395 e03c 2ba8 06be
000000a0: f8ad debd cc91 07be e2f9 09be db23 8fbc
000000b0: 75f2 4cbd a953 6cbd fe9d 263d e74b 313d
000000c0: 5f95 f2bd 5c7d 04be 8ea3 d0bd 8a97 543e
000000d0: 9452 9fbc 191f 123e cbef 083e 41e9 f5bd
000000e0: 0204 a73d 2d68 dc3d 5b2a f93d b418 443d
000000f0: 72ce c9bd 472e bdbc c984 ab3d f938 cabd
00000100: 1015 7d3e f48b 583d 6435 75bd ecf8 be3d
00000110: 09c6 2d3d f718 b3bd 0ba1 703d 2f3c 45bd
00000120: 8a56 f7bd 6f95 0d3e 14e2 0b3d d5cc 3abe
00000130: e4e4 083e c490 5c3d e960 3cbd 3885 383d
00000140: 0377 383d 4059 f5bd 1dad 523d 5194 47bb
00000150: 251b 01be 2108 de3d 0199 09be b806 febc
00000160: d942 4ebd 61b6 4abd 40cb 1fbc a76f 74bb
00000170: 6469 b4bd 3a96 0dbe 751a 7abd daad 813d
00000180: 206d 06be 2c82 a1bd 4938 1ebc e9c6 023d
00000190: a200 1d3d a0b9 473d cb80 f7bd be4d 0e3e
000001a0: 41dc 53bd 025f 37be 41e1 b23d 2373 84bd
000001b0: dfb4 d6bd 1461 913c 42a9 b03d 9a3f 64bd
000001c0: 7ff3 df3d 3300 893d a27c 333d 5ae7 a53d
000001d0: 2894 49bc 5d3c b7bd 8ca0 dfbb 0ef2 b83c
000001e0: c567 0dbe 4ccb 2e3e a510 90bd 99e9 963d
000001f0: c492 f1bd 6aaf 553d bb13 6a3d daf3 073e
00000200: 3ad1 8f3a 33c7 e93d 4811 093e f5b5 b23d
00000210: 75ff f03d b0f1 01bd 5205 113e f0f5 b7bd
00000220: 634f e43d 2385 a23c e60c 9fbd 6737 263d
00000230: dcda babd c36f 8dbd 1748 453d 3dee f9bd
00000240: 6e61 f93d 8a53 aebd 7fef 693d 7b12 1d3d
00000250: c648 4b3d 0af2 0f3d ac24 353d 6895 6f3c
00000260: 5c0f e73d 5521 993d 3768 063e f369 183d
00000270: 837c ad3b ede0 2bbb 4509 69be c109 4dbe
00000280: cd00 02be 20cc 47be 2d11 7cbe fc8c a7be
00000290: 2c8f 8ebe ee69 42be b794 6fbe 5332 91be
000002a0: 09c0 bcbd fde8 75bd 7a95 88ba 92fa 90bd
000002b0: da3d 7cbe 75f1 2fbd 502d 93bd 980c e43d
000002c0: da8a 813c 619b f7bd 6785 21bd c3da bf3d
000002d0: 12ab 213e 374f 0fbd 7511 0bbd 579e 05be
000002e0: e723 28be 9831 a33d 9723 5abd f864 ac3b
000002f0: f732 ae3d cb62 a8bd 8e56 1a3e 44ba 76bc
00000300: d35c cd3d 48ba 29be 49ad 223e ba37 8ebd
00000310: 46ed efbd 9050 acbd 71d4 113c 688f 2a3d
00000320: 0122 143e c852 8dbd e0f1 0f3e 0443 03be
00000330: 09c3 d93c 14dc 98bd e342 c6bd fdc6 f03d
00000340: 0349 c63d c6fe 733d 9903 133e 1461 82bc
00000350: 9134 2fbe 970c 0e3e 6c92 40be a7bb cebd
00000360: 223a 32bc 104c e93d 733a 01bc c49e d23d
00000370: b463 a93d 5173 723c 5c1f c7bc 7edd 96bd
00000380: 5972 203d 1bd5 aa3d 3b4e 2e3c a4eb babc
00000390: 680f 9fba cefa 27bd 2d0d 8c3d 1615 db3d
000003a0: 8288 93bd daf8 fabd 53a4 eb3d 14b4 933d
000003b0: 0b09 a0bd c523 cdbd baa9 12be 0630 543d
000003c0: c31c f73c 77ad 2fbd 27d5 673d 611b 52bd
000003d0: 12d7 dc3d f3ba 3b3d a24f edbd 5dae cd3d
000003e0: d997 163e 548f d2bd f0a4 f9bd c33e 19be
000003f0: df83 783d c7bb 9bbc a170 4e3d 6a9b 1fbe
-0.006801786 0.1585055 0.091384225 -0.07955949 -0.052272152 0.102377765 -0.19532332 -0.102944106
0.002462532 0.10764304 0.13813172 -0.24594708 -0.06316561 0.1361052 -0.0114520425 0.023822114
-0.0038938099 0.05493142 -0.15173604 -0.0124417 0.019209173 -0.07901887 -0.11856788 -0.07010464
0.051714174 0.08158336 -0.025450151 -0.039474018 0.15644829 0.016614128 0.101675466 0.092593856
0.06260007 -0.14933002 0.04413573 0.14739205 0.0358382 0.14258642 0.027415013 -0.13150088
-0.10873026 -0.13239211 -0.13474229 -0.017473152 -0.050035913 -0.057696972 0.040678017 0.043285277
-0.118448965 -0.12938446 -0.101874456 0.20760933 -0.019448556 0.14269675 0.13372724 -0.1200738
0.08155061 0.107620575 0.12166282 0.04787512 -0.098538294 -0.023093356 0.08374936 -0.09874148
0.24715066 0.052867845 -0.05986537 0.09324822 0.04242519 -0.08744996 0.058747333 -0.0481531
-0.12077053 0.13826536 0.03415115 -0.182422 0.13368565 0.053848997 -0.04599086 0.045048922
0.045035373 -0.11979914 0.051434625 -0.0030453394 -0.12608011 0.10841394 -0.13437273 -0.031009063
-0.05035672 -0.049490336 -0.009753048 -0.0037297995 -0.08809164 -0.13826838 -0.061060388 0.06331988
-0.13127565 -0.078861564 -0.009656974 0.031927977 0.03833068 0.04876101 -0.12085112 0.13896844
-0.051723722 -0.17907336 0.0873437 -0.06467273 -0.10483717 0.017746486 0.08626033 -0.055724718
0.10935115 0.06689491 0.04382003 0.081007674 -0.01230339 -0.0894706 -0.0068245586 0.022576358
-0.13809116 0.17069739 -0.07034425 0.07368774 -0.117955714 0.05216924 0.057147723 0.13276616
0.0010972389 0.11414947 0.13385499 0.08726112 0.117674746 -0.03172463 0.14162186 -0.08982456
0.11147954 0.019838875 -0.07766132 0.04058018 -0.09123775 -0.069060825 0.048164453 -0.122036435
0.12176786 -0.085120276 0.057113167 0.038347702 0.04962995 0.035142936 0.044224426 0.014623024
0.112822264 0.07477061 0.13125692 0.037210416 0.005294384 -0.0026226596 -0.22757442 -0.20023252
-0.12695618 -0.19511461 -0.24615927 -0.3272475 -0.27843606 -0.18985721 -0.23396574 -0.28358707
-0.09216315 -0.060036648 -0.0010420524 -0.070790425 -0.2463297 -0.04295488 -0.07186377 0.111352146
0.01581328 -0.12090183 -0.039433863 0.09367897 0.15787914 -0.034987655 -0.033952195 -0.13048683
-0.16419946 0.07968444 -0.053256597 0.00526106 0.085058145 -0.08221968 0.1507208 -0.015059058
0.100274704 -0.16574967 0.15886416 -0.06944223 -0.11715178 -0.084138036 0.008900748 0.04164067
0.14466096 -0.06900555 0.14057112 -0.12818533 0.026582258 -0.074638516 -0.096807264 0.11756704
0.09681895 0.059569143 0.14356841 -0.015915431 -0.17109896 0.1387199 -0.18805856 -0.100943856
-0.010878118 0.11391461 -0.007887471 0.102841884 0.0827097 0.014798001 -0.024306946 -0.07366465
0.03917155 0.08341428 0.010638769 -0.02281744 -0.0012135329 -0.04101067 0.068384506 0.10697381
-0.07203771 -0.12254496 0.11505952 0.072120816 -0.07814225 -0.10016588 -0.14322558 0.05180361
0.030165082 -0.04289004 0.056599762 -0.05129564 0.10783209 0.045832586 -0.115874544 0.10043023
0.14706363 -0.10281244 -0.121896625 -0.14965348 0.060672637 -0.019010438 0.05040038 -0.1558663

CNN.0.bias f4 [32]
00000000: 5cd2 c3bd 9768 853d 4404 d5bd 4383 a93d
00000010: cd4a 60bd 7e7f 0d3c 6e0a b33c 55f9 82bc
00000020: 9696 1cbd dd16 cebd b9a7 683d 4b63 a73d
00000030: 6971 eabc 06ad 103e 7fdd c1bb 0b16 f5bc
00000040: 7140 49bd 316e c3bd f4fd ab3d 1816 eb3d
00000050: 2c5e a8bd 106b fb3d c820 93bc 3fb9 c13d
00000060: bfd8 d0bd 4dcf a03c 6f56 a73d 2abd 903d
00000070: 2230 cb3c a73f 89bd b97d 9dbd d945 aebd
-0.09561607 0.065140896 -0.10401204 0.08276989 -0.054758836 0.008636354 0.02185556 -0.015988031
-0.038229547 -0.100629546 0.056800578 0.081732355 -0.028618531 0.14128503 -0.005916297 -0.029917737
-0.04913372 -0.09542502 0.08398047 0.114788234 -0.08221087 0.1227628 -0.017959967 0.09459161
-0.10197591 0.019630099 0.08170783 0.0706733 0.024803225 -0.06701594 -0.07689995 -0.08509416
