current_saved_model.pth (torch, 903151 bytes, 28 tensors)

embedding.weight f4 [10, 6]
0	0x400af349	2.171099
1	0xbf02a135	-0.5102723
2	0x3ed95dfe	0.42454523
3	0x3f21c420	0.6318989
4	0x3f6fc2dd	0.9365671
5	0x3e4ac4e0	0.19801664
6	0xc018c1c7	-2.3868272
7	0xbff7190a	-1.9304516
8	0xbf857112	-1.0425131
9	0x3f150276	0.5820688
10	0x3e12c3a7	0.14332448
11	0x3bf84a98	0.0075772516
12	0xbfa831d7	-1.314021
13	0xbfa4ac2c	-1.2865043
14	0xbfb9d67b	-1.4518579
15	0xbf160186	-0.58596075
16	0xbf1022ad	-0.5630291
17	0xbfae1072	-1.3598769
18	0x3f1b44a0	0.6065159
19	0xbe96f56f	-0.29484126
20	0xbebb7c64	-0.3661834
21	0x40114c9f	2.2703016
22	0xbf861bb0	-1.04772
23	0x3d9b4478	0.07581419
24	0xbe41bb94	-0.18919212
25	0x3ff2536b	1.8931707
26	0xbedba98a	-0.42902786
27	0x3f15094e	0.5821732
28	0xbe8044f0	-0.25052595
29	0xbce1a79a	-0.027545739
30	0x3fbb16f1	1.4616376
31	0x3ea529bb	0.322584
32	0xbf2b9026	-0.6701683
33	0xbec7d7b6	-0.39031762
34	0x3fa35438	1.2760077
35	0xbf95a98f	-1.169237
36	0xbf5af2cd	-0.85526735
37	0x3fbf3a84	1.4939733
38	0xbcdb8467	-0.026796533
39	0xbf7c4987	-0.98549694
40	0xc0159c2c	-2.337657
41	0x3fc7860c	1.5587783
42	0x3e0a0d01	0.13481523
43	0xbed15129	-0.40882233
44	0xbf0a9309	-0.5413061
45	0x3e6853ea	0.2268826
46	0x3f49ae24	0.7878134
47	0xbf31b018	-0.6940932
48	0xbf506e75	-0.81418544
49	0xbdcc0c7f	-0.09963321
50	0xbf8c52f8	-1.096282
51	0x3ebb698c	0.36603963
52	0x3e234388	0.1594373
53	0x3f9fd420	1.248661
54	0x3e519a34	0.2046898
55	0x3f1f8280	0.623085
56	0xbf932d41	-1.1498185
57	0x3fc8cdb7	1.5687779
58	0x3f7f3620	0.99691963
59	0x3d928d69	0.07155878

ConvTransp2D.0.weight f4 [9, 48, 4, 4]
0	0x3b0aff77	0.0021209398
1	0x3ca27f72	0.019836161
2	0xbc989836	-0.018627267
3	0xbd570ee4	-0.052504435
4	0xbca68115	-0.020325223
5	0x3cf08aea	0.029363114
6	0x3cc56c58	0.024099514
7	0xbc0aa27f	-0.008461594
8	0xbb850869	-0.0040598405
9	0x3d4cd5f1	0.050008718
10	0x3c255f45	0.010093515
11	0x3bf95c38	0.0076098703
12	0xbd0a5bfe	-0.033779137
13	0x3ce2f429	0.027704315
14	0xbd95a3cc	-0.073066324
15	0x3da2e719	0.07954235
16	0x3ce76f18	0.028251216
17	0xbd4d7660	-0.05016172
18	0xbcd50164	-0.02600164
19	0x3b5a675e	0.0033325772
20	0x3d71e39c	0.059054956
21	0xbb86b922	-0.004111425
22	0x3d54ac28	0.051921993
23	0x3cfa63a5	0.030565092
24	0xbd6272fd	-0.055285443
25	0x3d23052b	0.03979985
26	0xbd16e4c0	-0.036839247
27	0x3cdd86f7	0.027041895
28	0xbc097297	-0.008389137
29	0x3c438744	0.011934105
30	0x3d8ab54d	0.06772862
31	0xbd405a96	-0.04696139
32	0xbc70f54f	-0.014706924
33	0xba458ffd	-0.00075364095
34	0xbb942002	-0.004520417
35	0x3d26c19a	0.040711977
36	0xb99a3859	-0.0002941515
37	0x3c8f1489	0.017465847
38	0xbcd77dc2	-0.026305083
39	0x3d1acbfa	0.037792183
40	0x3c499f82	0.012306096
41	0x3dd5d37b	0.10440727
42	0xbc85bc69	-0.016325193
43	0x3cc3cc8f	0.023901252
44	0xbd6d753c	-0.05797313
45	0xbcb03420	-0.02150923
46	0xbc81801c	-0.015808158
47	0x3ced67ed	0.02898022
48	0x3b76cf59	0.003766021
49	0x3d5431e9	0.05180541
50	0xbb976d6b	-0.004621198
51	0xbb7d9225	-0.0038691845
52	0x3c0d5d95	0.008628269
53	0xbd535034	-0.05159016
54	0x3b9fc87a	0.0048761936
55	0x3c10e258	0.008843027
56	0x3c29e304	0.010369066
57	0x3c753934	0.014967252
58	0x3cb51434	0.02210436
59	0x3bc527a5	0.006016689
60	0xbdacc3d3	-0.08435788
61	0xbd026eba	-0.03184388
62	0x3b01b3da	0.0019791038
63	0xbce39d87	-0.027785076
64	0x3c061663	0.008184048
65	0x3c965038	0.018348798
66	0x3ce506ac	0.027957283
67	0x3d417a91	0.04723603
68	0x3cfcf6dd	0.030879432
69	0xbcc65913	-0.024212396
70	0x3d1588da	0.036507465
71	0x3d082da7	0.033246662
72	0xbc8ac456	-0.016939323
73	0xbdbe168a	-0.09281643
74	0xbcee3efa	-0.029082764
75	0x3c5263f3	0.012841213
76	0x3cd85bcf	0.026410965
77	0xbce4b1fd	-0.027916903
78	0x3d28853a	0.04114268
79	0xbba9ca08	-0.0051815547
80	0x3d6111c9	0.054948602
81	0xba52c87e	-0.000804074
82	0x3d280542	0.04102064
83	0x3cc3a8ac	0.02388414
84	0xbd4f3e89	-0.050596748
85	0xbaf52d81	-0.0018705578
86	0xbd69c01a	-0.057067968
87	0xbc81c122	-0.015839163
88	0xbc7dd9ec	-0.015493851
89	0x3bf6a14e	0.0075265532
90	0xbd72f654	-0.059316948
91	0xbc1987d6	-0.009370765
92	0xbd0ff74e	-0.035147958
93	0x3c85c3f9	0.016328799
94	0xbd3e5f2c	-0.04647748
95	0x3d89ae8e	0.06722747
96	0x3c9bddc0	0.019026637
97	0xbc85905d	-0.01630419
98	0xbbc11a86	-0.0058930544
99	0xbcc175a6	-0.02361567
100	0xbcf37295	-0.029717723
101	0x3bbfe2ac	0.005855879
102	0x3cc78a54	0.024357952
103	0x3d62e045	0.05538966
104	0xbc91d6f3	-0.017802691
105	0xbc9b0414	-0.018922843
106	0x3ccceb4d	0.025014544
107	0xbd096db0	-0.03355187
108	0xbd3e0b1e	-0.04639732
109	0x3c5202bf	0.0128180375
110	0x3c815279	0.015786396
111	0xbd65508b	-0.055985015
112	0xbab263cb	-0.0013610063
113	0x3ce93400	0.028467178
114	0x3b81c9ac	0.0039608087
115	0xbc75c706	-0.015001064
116	0xbda10ddc	-0.078639716
117	0xbc3d3c4b	-0.0115500195
118	0x3b60f986	0.0034328415
119	0xba4ff16a	-0.0007932397
120	0xbd5b09a0	-0.053475976
121	0xbbd869b3	-0.006604397
122	0xbd0b562c	-0.034017727
123	0x3c75ecc5	0.015010064
124	0xbb906121	-0.00440611
125	0x3bdc7f7e	0.0067290654
126	0xbc538494	-0.012910027
127	0x3d8dc859	0.06922979
128	0x3c45dc0b	0.012076388
129	0xbca74f87	-0.020423664
130	0xbc804f0c	-0.015662692
131	0x3cd44740	0.02591288
132	0xbd91bd1b	-0.07116147
133	0x3d7a6911	0.061135355
134	0x3d07f355	0.033191044
135	0x3ce24519	0.027620839
136	0x3c29dfc5	0.010368292
137	0x3c09127f	0.008366226
138	0xbd07130d	-0.032977153
139	0x3cbd00b5	0.023071626
140	0xbcba069d	-0.022708232
141	0x3db7bf4b	0.08972033
142	0x3cfd8460	0.03094691
143	0xbd61f075	-0.05516096
144	0x3b8965e0	0.0041930526
145	0x3d3d1b0c	0.046168372
146	0x3d7c8b8c	0.06165652
147	0xbd00bae0	-0.031428218
148	0x3cb9588e	0.022625234
149	0x3b34c10a	0.002758088
150	0xbca562af	-0.020188658
151	0xbb5ffa41	-0.0034176263
152	0x3d443ce8	0.047909647
153	0xbc155753	-0.009115058
154	0xbd038af2	-0.03211493
155	0x3dadb116	0.08481042
156	0x3cf33348	0.029687539
157	0x3d367700	0.04454708
158	0x3db67bb2	0.08910312
159	0x3d8261ed	0.06366334
160	0xbd8d25f0	-0.06892002
161	0xbcc01eea	-0.023452241
162	0x3dd750ee	0.10513483
163	0x3a842da2	0.00100844
164	0xbc6e6f1c	-0.014552858
165	0xbc5feadb	-0.013666834
166	0xbd207274	-0.03917165
167	0x3c8336a3	0.016017264
168	0xbb69cb14	-0.0035674023
169	0x3dbb3949	0.09141786
170	0x3d9fa926	0.077959344
171	0x3baa98b3	0.0052061914
172	0xbcf4d0f1	-0.029884787
173	0xbbc15c4a	-0.0059008943
174	0xbce03470	-0.027368754
175	0xbc6340f6	-0.013870468
176	0xbcfc5d66	-0.030806255
177	0xbbc56c3b	-0.006024865
178	0x3c903b34	0.017606355
179	0xbd1861ee	-0.037202768
180	0xbbe08eec	-0.006852975
181	0xbd1d2174	-0.03836198
182	0xbcbc9b69	-0.023023324
183	0x3d5ee3f0	0.054416597
184	0x3cb37773	0.021907544
185	0xbca8822c	-0.020569883
186	0x3cea856e	0.028628077
187	0x3c8e648f	0.017381934
188	0xbdc6a881	-0.09700108
189	0xbd4e8899	-0.05042324
190	0xbd2b2b23	-0.041789185
191	0x3d3263bd	0.04355215
192	0xbd12b569	-0.035817537
193	0xbbc7c6ad	-0.006096682
194	0xbc8cdf66	-0.017196368
195	0xbbefdfdc	-0.0073203873
196	0x3cbd736a	0.023126323
197	0x3cc01c2a	0.02345093
198	0xbce5a5ac	-0.0280331
199	0x3d23d07d	0.03999375
200	0x3cfcccb0	0.030859321
201	0x3ca538c2	0.020168666
202	0xbbbca82e	-0.0057573533
203	0x3d9831c7	0.07431369
204	0xbd1aa1ae	-0.037751846
205	0xbd18ee9e	-0.037336938
206	0x3bcff124	0.006345885
207	0xbd18b653	-0.037283253
208	0x3c550fe7	0.01300428
209	0x3d6540e6	0.055970095
210	0xbbefc85d	-0.0073175863
211	0x3d1d68a9	0.03842989
212	0x3c8f207c	0.017471544
213	0x3c38031d	0.011231211
214	0x3cc8619c	0.024460606
215	0x3d41c913	0.0473109
216	0xbcc7b7d3	-0.024379646
217	0x3d907d71	0.07055176
218	0x3c899562	0.016794864
219	0x3b4187f3	0.0029530495
220	0x3cc4a438	0.024004087
221	0x3d79d3da	0.060993053
222	0xbb57e5a9	-0.0032943285
223	0x3c21d499	0.009877347
224	0x3b11539e	0.0022175084
225	0x3d385381	0.04500151
226	0x3daa7428	0.08322936
227	0xbd262da0	-0.040570855
228	0xbdac1143	-0.0840173
229	0xbcae6356	-0.021287601
230	0xbd0cfbb1	-0.03441972
231	0xb941f744	-0.00018498028
232	0xbd5102a9	-0.051027928
233	0xbd1fcd1f	-0.039013978
234	0x3d444b49	0.04792336
235	0x3c245c7d	0.010031817
236	0xbcf45f84	-0.029830702
237	0x3d0fda86	0.03512051
238	0xbc9d0870	-0.019169062
239	0x3c3a056f	0.0113538345
240	0xbbe68c28	-0.007035751
241	0x3d86af35	0.06576387
242	0x3d5fe8f9	0.05466554
243	0xbd9270c8	-0.071504176
244	0xbd879e62	-0.06622006
245	0xbb4006d7	-0.0029300952
246	0xbcf65eba	-0.030074466
247	0x3bb75d95	0.0055958726
248	0x3d5d6996	0.054055773
249	0x3d7485ec	0.05969803
250	0xbb857d5d	-0.0040737824
251	0xbc5a7472	-0.013333427
252	0x3d89adc7	0.067225985
253	0x3d87d23d	0.06631897
254	0xbcd4a2e9	-0.025956588
255	0x3d9386c3	0.07203438

ConvTransp2D.0.bias f4 [48]
0	0x3d0d9b14	0.034571722
1	0xbce9ed61	-0.028555574
2	0xbbae3923	-0.00531687
3	0x3cb97827	0.0226403
4	0x3b943f7d	0.00452417
5	0x3ac5a57a	0.0015079223
6	0x3cab812c	0.020935617
7	0xbd1e6bf7	-0.038677182
8	0x3c21b32d	0.009869379
9	0xbbc61c31	-0.006045841
10	0xbd04089b	-0.03223477
11	0xbd1d7394	-0.038440302
12	0x3c7574d5	0.014981468
13	0x3c8baba6	0.017049622
14	0xbceb81c3	-0.028748399
15	0xbcf5a7ed	-0.0299873
16	0xbc9374ec	-0.018000089
17	0xbc3c8dfc	-0.011508461
18	0x3cdd5644	0.027018674
19	0x3c11c3d9	0.008896791
20	0xbcba5e89	-0.022750156
21	0x3c754787	0.014970667
22	0xbb1981f3	-0.0023423403
23	0xbb62005b	-0.0034485075
24	0xbd01f0dd	-0.031723846
25	0x3d14b237	0.03630277
26	0x3c49f689	0.012326845
27	0x3a8628d8	0.0010235561
28	0xbc9376ed	-0.018001044
29	0x3b67c4c9	0.0035365096
30	0x3b6f48f7	0.0036511996
31	0x3cf1332f	0.029443352
32	0x3b729aaf	0.0037018468
33	0x3cac238a	0.02101304
34	0x3c524528	0.012833871
35	0xbc739c89	-0.014868864
36	0x3c6d82b0	0.01449649
37	0x3d1a92e9	0.03773776
38	0x3c1e3ff9	0.009658807
39	0xbd13efd8	-0.036117405
40	0xbd018271	-0.03161854
41	0xbcdd534c	-0.027017258
42	0x3c61a46c	0.013772111
43	0xbcafeade	-0.021474298
44	0x3c93abb2	0.018026207
45	0x3cfaf054	0.030632176
46	0xbd083f2c	-0.03326337
47	0x3cb4c781	0.022067787

ConvTransp2D.1.weight f4 [48]
0	0x3f7de628	0.99179316
1	0x3f7f5634	0.9974091
2	0x3f81847b	1.0118555
3	0x3f80e06d	1.0068489
4	0x3f7ea733	0.99473876
5	0x3f86eb2c	1.0540519
6	0x3f852752	1.0402625
7	0x3f765bb1	0.9623366
8	0x3f7754c4	0.9661372
9	0x3f7a92d1	0.97880274
10	0x3f835c64	1.026257
11	0x3f7642cd	0.9619568
12	0x3f824156	1.0176189
13	0x3f81b9c1	1.0134813
14	0x3f8876f2	1.0661299
15	0x3f808898	1.0041685
16	0x3f7fd340	0.99931717
17	0x3f83cfcf	1.0297793
18	0x3f8482a6	1.0352371
19	0x3f8466f9	1.0343925
20	0x3f7aa32f	0.9790525
21	0x3f82b749	1.0212184
22	0x3f826297	1.0186337
23	0x3f7204a0	0.9453831
24	0x3f85cd25	1.045323
25	0x3f827b93	1.0193962
26	0x3f7c8f66	0.9865631
27	0x3f7f2700	0.99668884
28	0x3f7c0625	0.98446876
29	0x3f846ac0	1.0345078
30	0x3f8674ae	1.0504358
31	0x3f7a3a0a	0.9774481
32	0x3f7ae1eb	0.98000973
33	0x3f85132d	1.0396477
34	0x3f825bb9	1.0184242
35	0x3f80f869	1.0075809
36	0x3f80bd61	1.0057794
37	0x3f82025b	1.0156969
38	0x3f794393	0.97368735
39	0x3f7d8087	0.9902424
40	0x3f7c4bec	0.9855335
41	0x3f84c723	1.0373272
42	0x3f7e9a0c	0.99453807
43	0x3f847dbe	1.0350873
44	0x3f85cb0b	1.0452589
45	0x3f846fbc	1.0346599
46	0x3f855ba5	1.0418593
47	0x3f70f958	0.9413047

ConvTransp2D.1.bias f4 [48]
0	0xbcc9181a	-0.024547625
1	0x3d1c7200	0.038194656
2	0x3c2cbb36	0.010542681
3	0x3cf64fb8	0.03006731
4	0x3d2380e8	0.039917856
5	0xbd095f09	-0.0335379
6	0xbba03638	-0.004889276
7	0xbd480d60	-0.04884088
8	0xbcf24fdc	-0.029579096
9	0xbbdadf87	-0.0066794786
10	0xbd8eadba	-0.069667295
11	0xbd512de9	-0.051069174
12	0xbc893800	-0.016750336
13	0xbd1e3c58	-0.038631767
14	0xbc9555fe	-0.01822948
15	0xbd230a5f	-0.039804813
16	0xbc2e7e59	-0.010650241
17	0xbce63083	-0.028099304
18	0xbc7af498	-0.015317105
19	0x3cd4bab2	0.02596793
20	0xbd4ff69b	-0.05077229
21	0xbc4bafe6	-0.012432074
22	0xbcb4a0f0	-0.022049397
23	0xbd50deae	-0.050993614
24	0xbce887c1	-0.028385045
25	0xbbc5db2d	-0.0060380907
26	0x3a1ac340	0.00059037283
27	0xbd434079	-0.047668908
28	0xbc27d304	-0.010243181
29	0x3d070447	0.032963064
30	0x3c8b0b83	0.016973263
31	0xbccb2ab8	-0.024800643
32	0xbd1f4524	-0.038884297
33	0x3c3335dd	0.010938135
34	0x3ca851dd	0.020546848
35	0x3c6e6795	0.014551063
36	0xbd675009	-0.05647281
37	0xbcfa7f58	-0.0305783
38	0xbca480b6	-0.020080905
39	0xbcd82f68	-0.026389793
40	0xbc88e962	-0.016712848
41	0x3b73900c	0.0037164716
42	0xbc58165b	-0.013188924
43	0xbcbdcec8	-0.02316989
44	0xbc2afd53	-0.010436374
45	0x3ca21db7	0.01978956
46	0x3d08f01e	0.03343212
47	0xbcbdbf4f	-0.023162512

ConvTransp2D.1.running_mean f4 [48]
0	0x3d1682b9	0.03674576
1	0xbc9f334e	-0.019433644
2	0xbc194803	-0.009355548
3	0x3ca20251	0.019776495
4	0xbc111eae	-0.008857412
5	0x3c427138	0.011867814
6	0x3d0e5c6f	0.03475612
7	0xbd00010c	-0.031251
8	0x3c6c9522	0.014439853
9	0xbb338cf8	-0.0027397256
10	0xbcae257b	-0.021258106
11	0xbd099c99	-0.03359661
12	0x3ca43848	0.020046368
13	0x3ca68b4a	0.02033009
14	0xbc335d55	-0.010947545
15	0xbce6909c	-0.028145127
16	0xbc6f24fa	-0.014596218
17	0xbbc52c86	-0.0060172705
18	0x3d0945b7	0.03351375
19	0x3c825962	0.015911762
20	0xbc83514c	-0.016029976
21	0x3c4499f4	0.011999596
22	0x3c19324d	0.009350372
23	0x3c362db4	0.011119295
24	0xbc08dba5	-0.008353149
25	0x3d509728	0.050925404
26	0x3c86e96d	0.016468728
27	0x3c0d2c1b	0.008616473
28	0xbcac7b7e	-0.02105498
29	0xbc016882	-0.007898452
30	0xbae3c875	-0.0017378466
31	0x3d2d7d08	0.042355567
32	0x3c985f12	0.01860002
33	0x3ce18b6a	0.027532298
34	0x3c74a16e	0.014931066
35	0xbc7b04c2	-0.015320959
36	0x3ccf69aa	0.02531894
37	0x3d47c5f5	0.04877277
38	0x3bc4e165	0.0060083144
39	0xbd00e5ff	-0.03146934
40	0xbca245b4	-0.019808628
41	0xbcfa2140	-0.030533433
42	0x3c25e844	0.010126177
43	0xbb7f3306	-0.0038940324
44	0x3ce948ee	0.028477158
45	0x3d262137	0.04055902
46	0xbd0759a2	-0.033044465
47	0x3c8c6ae9	0.017140822

ConvTransp2D.1.running_var f4 [48]
0	0x3c761613	0.015019911
1	0x3c679913	0.014135617
2	0x3c20b915	0.009809752
3	0x3c36dee6	0.011161542
4	0x3c266fa8	0.010158457
5	0x3c3b690e	0.011438621
6	0x3c13caf4	0.009020556
7	0x3c769985	0.01505125
8	0x3c8285af	0.015932886
9	0x3c7781e6	0.015106654
10	0x3c3f838d	0.011689079
11	0x3c619fd7	0.013771019
12	0x3c68094d	0.014162374
13	0x3c19f348	0.009396382
14	0x3c449ccf	0.012000277
15	0x3c70b11b	0.014690663
16	0x3c2f6ef0	0.010707602
17	0x3c21e2ca	0.009880731
18	0x3c0ccf20	0.008594304
19	0x3c5dbbe9	0.013533571
20	0x3c4b7d44	0.012420002
21	0x3c4fcb49	0.012682744
22	0x3c5dfae2	0.013548585
23	0x3c37bd25	0.011214529
24	0x3c50604d	0.012718272
25	0x3c1c6ff1	0.009548173
26	0x3c4a167c	0.012334462
27	0x3c5421b2	0.012947487
28	0x3c6b7082	0.014370086
29	0x3c37d898	0.011221074
30	0x3c551980	0.013006568
31	0x3c4c83fb	0.0124826385
32	0x3c4b73f8	0.012417786
33	0x3c4c9415	0.012486477
34	0x3c43cc8f	0.011950626
35	0x3c3029d9	0.010752165
36	0x3c61dda3	0.0137857525
37	0x3c3ad50a	0.0114033315
38	0x3c70a505	0.014687781
39	0x3c49a464	0.01230726
40	0x3c572660	0.013131708
41	0x3c2145e9	0.009843328
42	0x3c35b38a	0.011090169
43	0x3c3bd4aa	0.011464277
44	0x3c2771c3	0.010219994
45	0x3c299b60	0.010351986
46	0x3c209c99	0.009802961
47	0x3c3b096d	0.0114158215

ConvTransp2D.3.weight f4 [48, 24, 4, 4]
0	0x3b7bdaaf	0.0038429906
1	0x3d338596	0.04382857
2	0xbccda933	-0.025105095
3	0x3d8cdd2e	0.06878124
4	0x3c86e906	0.016468536
5	0xbb068119	-0.0020523726
6	0xbd696e2f	-0.056989845
7	0xbc33b9f2	-0.010969626
8	0xbb0770f2	-0.0020666686
9	0x3b1c2710	0.0023826994
10	0xbd447d53	-0.04797108
11	0xbd40b61f	-0.047048684
12	0x3afd91d7	0.0019345832
13	0xbd178b64	-0.036998168
14	0xbd180171	-0.03711075
15	0xbd17aaec	-0.03702824
16	0xbd5de768	-0.054175764
17	0x3cd4ac7d	0.025961155
18	0x3d587403	0.052845012
19	0x3cb9d42c	0.02268418
20	0x3d23ab68	0.039958388
21	0xbb795cf3	-0.0038049787
22	0xbc320126	-0.010864532
23	0xbd2ef10c	-0.04271035
24	0x3d2670cb	0.04063491
25	0x3ca10c60	0.019659221
26	0xbd77aa5f	-0.060465213
27	0x3cc6b522	0.024256293
28	0x3d71f826	0.059074543
29	0x3d95717a	0.072970346
30	0xbd5c5bd3	-0.053798508
31	0x3cb1c3da	0.021699835
32	0x3d497f86	0.04919388
33	0xbc1c937e	-0.009556649
34	0x3d00b11e	0.031418912
35	0x3d82bf8a	0.063841894
36	0x3d6a5cf5	0.057217557
37	0x3d5740e4	0.05255212
38	0x3ccb0c30	0.024786085
39	0x3d5516fd	0.052023876
40	0x3d93231b	0.0718443
41	0x3c9bcafa	0.019017685
42	0xbd72ad5a	-0.059247352
43	0xbca84a68	-0.020543292
44	0x3d0e4b2b	0.034739655
45	0x3bc4c1f9	0.0060045687
46	0x3d7efcda	0.062252857
47	0x3c8fb64e	0.017542984
48	0x3dc4e263	0.09613492
49	0x3c0b39f8	0.008497708
50	0x3d47f42f	0.048816856
51	0xbb5d6dbd	-0.0033787333
52	0xbd9a67dc	-0.07539341
53	0x3cf166e9	0.029468017
54	0x3d88f749	0.06687791
55	0x3c8fe0ab	0.017563185
56	0xbd074212	-0.033021994
57	0x3d4b1a42	0.04958559
58	0x3cb61168	0.022225097
59	0xbd04f279	-0.032457802
60	0xbda64918	-0.0811941
61	0x3dabd940	0.083910465
62	0x3d42ec2b	0.04758851
63	0xbd28f65b	-0.041250568
64	0x3d0eafe5	0.034835715
65	0xbccad0c8	-0.024757758
66	0xbcafe594	-0.021471776
67	0xbc7fd179	-0.015613907
68	0xbc94fe9d	-0.018187815
69	0x3c2dbce7	0.01060412
70	0x3c9346ab	0.017978033
71	0x3d94bf09	0.072629996
72	0x3d3665de	0.044530742
73	0xbd74377b	-0.059623223
74	0x3d7e69ab	0.06211249
75	0xbcaf9ee3	-0.021438068
76	0xbc87496c	-0.016514502
77	0xbde7bcaf	-0.113152854
78	0xbd34488e	-0.044014506
79	0x3d970130	0.073732734
80	0x3d8aa610	0.06769955
81	0x3c4de8ed	0.012567741
82	0x3cc847ac	0.024448238
83	0xbcdd6ee7	-0.027030421
84	0x3a82c1b8	0.0009975946
85	0x3dbd86c3	0.092542194
86	0x3ca9b3ed	0.020715678
87	0x3d2de8b3	0.042458247
88	0x3ca9967c	0.02070164
89	0x3ca72c7a	0.02040695
90	0xbdb6f381	-0.089331634
91	0xbd944ad8	-0.07240838
92	0xbcb5cf00	-0.022193432
93	0xbc87370d	-0.016505742
94	0xbde4fd1d	-0.1118109
95	0xbb1c4735	-0.0023846154
96	0x3ce05834	0.027385809
97	0x3c3f7a35	0.011686851
98	0xbc3a89f4	-0.01138543
99	0x3cead81b	0.0286675
100	0x3d0cf82a	0.034416355
101	0x3cbcdd3e	0.023054715
102	0x3c3e8914	0.011629362
103	0x3d653333	0.05595703
104	0x3d94745a	0.07248755
105	0xbd50999d	-0.050927747
106	0xbc180261	-0.009277911
107	0xbbdae996	-0.0066806776
108	0x3d7c35ca	0.061574735
109	0xbbdbbfa8	-0.006706197
110	0x3ce95b5a	0.028485943
111	0x3cacbcf8	0.021086201
112	0x3c043748	0.008069821
113	0x3c3ca5ee	0.01151417
114	0xbcd5648e	-0.026048925
115	0xbc331c33	-0.010932016
116	0xbd8e2b06	-0.069418
117	0xbc63f28a	-0.013912806
118	0x3c6ec2c7	0.014572806
119	0x3d966512	0.073434964
120	0x3d98c9d4	0.07460371
121	0x3cd4e857	0.025989695
122	0x3d379e0e	0.044828467
123	0x3d08da06	0.03341105
124	0xbd743329	-0.059619103
125	0x3d6bcccb	0.057568353
126	0x3ccb4ee7	0.024817897
127	0xbce9e9ac	-0.028553806
128	0xbc36e04a	-0.011161873
129	0x3d839b3d	0.06426094
130	0xbcd4e2ab	-0.02598699
131	0x3c5f338f	0.013623132
132	0xbd0b30df	-0.033982154
133	0x3c5ea1bf	0.013588368
134	0x3cb8ad4f	0.022543577
135	0xbd747590	-0.05968243
136	0x3d32f684	0.043692127
137	0x3d38b41b	0.045093637
138	0xbcc72f1f	-0.024314461
139	0xbd53503f	-0.0515902
140	0xbd837de1	-0.06420494
141	0xbb8c3864	-0.004279183
142	0xbcfc3687	-0.03078772
143	0xbd817625	-0.063213624
144	0xbd379e2f	-0.04482859
145	0xbb55f60e	-0.003264788
146	0xbd95c3e0	-0.07312751
147	0xbcb6434c	-0.022248887
148	0xbcc4b3ea	-0.024011571
149	0x3c47420e	0.012161745
150	0x3cce3b6a	0.025174815
151	0x3cc99902	0.024609093
152	0xbd649044	-0.055801645
153	0xbc1c795b	-0.009550418
154	0x3cdee110	0.027206928
155	0x3c15cf28	0.009143628
156	0x3d87dce2	0.06633927
157	0x3d4df8de	0.050286166
158	0x3cb90a0f	0.022587804
159	0x3c1a701e	0.009426145
160	0x3d8b15c8	0.06791264
161	0xbae1140f	-0.0017172116
162	0x3cc388e9	0.023868995
163	0xbd160320	-0.036624074
164	0xbce6d94f	-0.028179793
165	0xbc903fb9	-0.01760851
166	0x3bb995fc	0.0056636315
167	0x3d494d5a	0.049146034
168	0x3d6713d4	0.056415394
169	0xbc283f5f	-0.010269015
170	0xba4241ad	-0.0007410299
171	0x3d9abe03	0.07555773
172	0xbaaf8550	-0.0013391171
173	0xbca1723d	-0.019707793
174	0x3cd765c2	0.02629364
175	0xbc1fc20d	-0.009750855
176	0xbca038c8	-0.019558325
177	0xbd421a51	-0.04738838
178	0xbc6feb3f	-0.014643489
179	0x3d48ac00	0.048992157
180	0xbc8cc2af	-0.017182676
181	0x3d4ac969	0.049508486
182	0x3c315932	0.0108244885
183	0xbbfe1d88	-0.0077549852
184	0x39431351	0.00018603845
185	0x3c3a79a2	0.011381539
186	0x3cfe026e	0.031007018
187	0xbb768eba	-0.0037621693
188	0x3ce7c8f1	0.028294059
189	0xbcad2469	-0.021135526
190	0x3caa09f6	0.020756703
191	0x3d2e10af	0.04249638
192	0x3b498f92	0.003075574
193	0xbd1736f4	-0.03691764
194	0x3b1acccc	0.0023620604
195	0x3c39447a	0.01130783
196	0x3cebefc3	0.02880085
197	0xbcd8071e	-0.026370581
198	0x3d9784c0	0.07398367
199	0xbcc887c0	-0.024478793
200	0x3da7ba4e	0.08189832
201	0x3d79195b	0.060815196
202	0x3b6122d8	0.0034353044
203	0x3cc5966e	0.024119582
204	0x3d01b6e1	0.031668548
205	0xbd2b8f7e	-0.04188489
206	0x3cec694e	0.028858807
207	0xbd978d3e	-0.07399987
208	0x3d6b7b6e	0.05749076
209	0x3d1bd1a7	0.038041737
210	0xbd2ceca1	-0.042217854
211	0xba0ba3bc	-0.00053268275
212	0xbcec9cb3	-0.028883314
213	0xbd29e6bc	-0.04147981
214	0xbcf74e50	-0.03018871
215	0xbd599d1e	-0.053128354
216	0xbd8f6438	-0.07001537
217	0xba869ab0	-0.0010269489
218	0x3d3b7caa	0.045773186
219	0x3d3442cd	0.04400902
220	0x3daa35da	0.083110526
221	0xbca908dd	-0.02063411
222	0xbd6fd6ee	-0.058554582
223	0xbbfe8d19	-0.007768285
224	0xbc81b3e8	-0.015832856
225	0x3d265951	0.040612523
226	0x3d09a4a4	0.03360428
227	0x3b9138b6	0.0044318093
228	0x3ce50622	0.027957026
229	0xbcdca39b	-0.026933482
230	0x3bb05f58	0.0053824596
231	0x3ca96d0c	0.02068188
232	0x3c9974f8	0.018732533
233	0x3ce13134	0.027489282
234	0xbc023254	-0.0079465695
235	0xbafb0106	-0.0019150085
236	0xbd5b6ed5	-0.053572495
237	0xbd1f55e8	-0.038900286
238	0xbca95f86	-0.020675432
239	0x38ef658e	0.00011415324
240	0xbdaae04d	-0.08343563
241	0x3d9d318a	0.076754645
242	0x3d3d4c94	0.04621561
243	0xbc04f3be	-0.008114753
244	0x3cbe794c	0.023251198
245	0x3d486818	0.048927397
246	0x3c61221b	0.0137410415
247	0xbd885288	-0.066563666
248	0x3c8ee9d6	0.017445486
249	0x3d210073	0.03930707
250	0x3c2a3d45	0.010390584
251	0x3c914ad2	0.017735872
252	0xbce8aae7	-0.028401805
253	0x3d647129	0.05577198
254	0xbd490bcb	-0.049083512
255	0x3caf38b0	0.021389335

ConvTransp2D.3.bias f4 [24]
0	0xbd2810ca	-0.041031636
1	0xbd00cbf4	-0.031444505
2	0xbca94cda	-0.020666528
3	0x3c9d8ab6	0.019231182
4	0x3d36a395	0.044589598
5	0xbcbdb436	-0.02315722
6	0x3b3e5465	0.0029042002
7	0xbd3e9574	-0.04652925
8	0x3d35e59b	0.044408422
9	0xbcc658a0	-0.024212182
10	0x3bb73d73	0.005592042
11	0xbd3bf012	-0.045883246
12	0xbce2fd01	-0.027708532
13	0xbd58d3b1	-0.05293626
14	0x3bd52b6d	0.006505421
15	0x3c827689	0.015925663
16	0x3a8f2162	0.0010919983
17	0xbcd9a1c9	-0.026566403
18	0x3c8abb4f	0.016935019
19	0x3d21a9c2	0.039468534
20	0xbd18fb04	-0.037348762
21	0xbd24550e	-0.040120177
22	0xbbad9f9e	-0.005298569
23	0x3b58bb22	0.0033070524

ConvTransp2D.4.weight f4 [24]
0	0x3f7f6f6b	0.99779385
1	0x3f82a745	1.0207297
2	0x3f863fe5	1.0488249
3	0x3f78018c	0.9687736
4	0x3f81dfa4	1.0146375
5	0x3f7fb261	0.9988156
6	0x3f831593	1.0240959
7	0x3f87a428	1.0596972
8	0x3f7a5879	0.9779125
9	0x3f81bb2a	1.0135243
10	0x3f7f669a	0.9976593
11	0x3f809a9f	1.0047187
12	0x3f81ab9b	1.0130495
13	0x3f82e341	1.0225602
14	0x3f82df96	1.0224483
15	0x3f80edc8	1.0072565
16	0x3f7e6fd9	0.99389416
17	0x3f7d2d25	0.9889701
18	0x3f7e5e36	0.99362504
19	0x3f7ea0bb	0.99464005
20	0x3f781ab2	0.96915734
21	0x3f7f05d3	0.9961826
22	0x3f86edb0	1.0541286
23	0x3f7ff238	0.9997897

ConvTransp2D.4.bias f4 [24]
0	0x3bc85da0	0.0061146766
1	0xbc59bfb5	-0.013290335
2	0xbda48cb1	-0.08034647
3	0xbd976d14	-0.07393852
4	0xbd834ab4	-0.06410733
5	0xbcc65a11	-0.024212869
6	0x3d10648e	0.035252146
7	0xbd4742e4	-0.048647776
8	0xbd267420	-0.04063809
9	0xbaa445f0	-0.001253305
10	0xbdcab5b0	-0.098979354
11	0xbd88d27d	-0.066807725
12	0xbd147cb4	-0.03625174
13	0xbd8be9e2	-0.06831719
14	0xbd172353	-0.036898922
15	0x3ce5af6a	0.028037746
16	0xbc260578	-0.01013314
17	0x3c9d9d64	0.019240089
18	0xbd9fc80e	-0.07801829
19	0xbd532cd9	-0.051556442
20	0xbd655db6	-0.055997573
21	0x3d09e515	0.033665735
22	0x3d374334	0.044741824
23	0xbd651df7	-0.05593678

ConvTransp2D.4.running_mean f4 [24]
0	0xbdfaa36c	-0.122382015
1	0x3d929b3e	0.07158516
2	0x3ec55f6f	0.38549373
3	0x3eab65b0	0.3347602
4	0x3ebd9ebd	0.3703517
5	0x3e2103eb	0.15724151
6	0x3e15efdd	0.14642282
7	0x3bbb7a33	0.0057213544
8	0x3d0b46e6	0.03400316
9	0x3e1d3a1e	0.15354201
10	0x3eabb315	0.33535066
11	0x3ec2de74	0.38060343
12	0x3d388ff0	0.045059144
13	0xbbf10a1e	-0.0073559424
14	0x3d88f1b2	0.06686725
15	0x3da406ce	0.080091104
16	0x3e96b179	0.29432276
17	0x3e0e27fa	0.13882437
18	0x3d96b576	0.0735883
19	0x3eb79d5b	0.3586224
20	0x3e303b56	0.17210135
21	0xbdcaca30	-0.099018455
22	0xbdacead1	-0.08443225
23	0x3db9cddf	0.0907247

ConvTransp2D.4.running_var f4 [24]
0	0x3e140a45	0.14457043
1	0x3e627a24	0.22116905
2	0x3e2cfde8	0.16893733
3	0x3e95408c	0.29150808
4	0x3e6f2273	0.23352985
5	0x3e764599	0.24049987
6	0x3e30fa65	0.17283018
7	0x3e2cfc05	0.16893013
8	0x3e259e78	0.16173732
9	0x3e992fa8	0.2991917
10	0x3e8bf99d	0.27338877
11	0x3e5f9174	0.2183283
12	0x3ec049b8	0.37556243
13	0x3e16fd4e	0.14745066
14	0x3e075ccf	0.13218997
15	0x3e5bcb0a	0.21464172
16	0x3e41de5a	0.18932477
17	0x3e5cc28f	0.21558593
18	0x3e18d0c0	0.14923382
19	0x3e13b52f	0.14424585
20	0x3ea371af	0.3192267
21	0x3e87ff7d	0.2656211
22	0x3e004282	0.1252537
23	0x3e5077e1	0.2035823

ConvTransp2D.6.weight f4 [24, 12, 4, 4]
0	0x3d1b0def	0.037855085
1	0xba3f0f2f	-0.00072883343
2	0xbc68fe52	-0.014220791
3	0x3d6e7416	0.058216177
4	0xbd36008f	-0.044434126
5	0x3c46a732	0.012124823
6	0x3a567f4e	0.0008182422
7	0xbbb4fab1	-0.005523049
8	0x3bd9093e	0.006623416
9	0x3af10150	0.0018387232
10	0xbc2389ae	-0.009981556
11	0xbca24128	-0.01980646
12	0xbc8029cb	-0.015644928
13	0xbc7d169a	-0.015447283
14	0xbbb20a87	-0.005433384
15	0xbd6e43ee	-0.05817025
16	0xbddabe87	-0.106808715
17	0xbd7513ba	-0.059833266
18	0x3cc71cf5	0.0243058
19	0xbb576282	-0.0032865112
20	0x3c925260	0.017861545
21	0xbcd8b98b	-0.026455661
22	0x3dbcebe8	0.09224683
23	0x3d42f249	0.047594342
24	0x3c38e0ef	0.011284097
25	0xbd0ca013	-0.034332346
26	0x3db0f7cc	0.086410135
27	0x3d791496	0.060810648
28	0xbba70cf4	-0.0050979797
29	0x3d1af0ac	0.03782718
30	0xbd4e6c62	-0.05039633
31	0x3d2a1f86	0.04153397
32	0x3d211509	0.0393267
33	0x3d069e1b	0.032865625
34	0x3bfee93b	0.007779268
35	0xbdf01cb3	-0.11724224
36	0x3cadf69f	0.021235762
37	0xbd7147ff	-0.05890655
38	0x3d3db230	0.04631251
39	0xbced6533	-0.02897892
40	0x3ced1bf4	0.028943993
41	0x3d00b329	0.03142086
42	0xbd1e1880	-0.038597584
43	0x3daa558e	0.083170995
44	0x3d267635	0.040640075
45	0x3c9911c8	0.018685237
46	0x3da15b18	0.07878703
47	0x3dd9461d	0.10609076
48	0x3c4bce95	0.01243939
49	0xbc6e1a0b	-0.014532576
50	0x3d5c4bf7	0.053783383
51	0x3ca73e4f	0.020415453
52	0xbd560698	-0.052252382
53	0xbc231ef4	-0.00995611
54	0xbd46d2a1	-0.048540715
55	0x3d086385	0.033298034
56	0x3c89a997	0.0168045
57	0x3d20d21e	0.039262883
58	0x3d4ea36e	0.050448827
59	0x3bbf52ac	0.0058387127
60	0x3d719c1f	0.05898678
61	0x3cd54151	0.026032122
62	0xbd1f3593	-0.03886945
63	0x3d852d80	0.06502819
64	0xbca9582b	-0.020671925
65	0x3b5e765e	0.0033945064
66	0x3c8b3359	0.016992258
67	0xbc0b2066	-0.008491611
68	0x3d952d02	0.07283975
69	0xbde1fb48	-0.11034256
70	0x3d2c07ee	0.04199975
71	0xbd6bc01b	-0.057556253
72	0xbd94ce43	-0.07265904
73	0xbda489aa	-0.0803407
74	0x3beccea1	0.0072267805
75	0xbdb0bb48	-0.08629471
76	0x3be0a22a	0.006855269
77	0xbd75a71f	-0.059973832
78	0xbbc0667b	-0.0058715916
79	0x3d26b277	0.04069754
80	0xbd3b151b	-0.045674425
81	0x3c77475d	0.015092698
82	0xbccfe8a6	-0.02537949
83	0x3d3c464d	0.04596548
84	0xbcf77bc7	-0.030210389
85	0xbb97afc0	-0.0046291053
86	0x3cbce127	0.02305658
87	0xbc07e811	-0.008295075
88	0x3cae2882	0.02125955
89	0x3d5ec8e8	0.054390818
90	0x3d671357	0.05641493
91	0x3e034195	0.12817986
92	0x3d45e018	0.048309416
93	0x3de0f0dd	0.10983441
94	0x3dceca82	0.10097219
95	0x3d541d9b	0.051786046
96	0xbc439d52	-0.011939364
97	0x3c1f79e8	0.009733655
98	0x3d59074e	0.052985482
99	0xbcd25c2b	-0.025678715
100	0x3d2aa024	0.04165663
101	0x3d312a77	0.04325339
102	0x3d386d84	0.045026317
103	0x3c5c3601	0.01344061
104	0x3db0ec68	0.08638841
105	0x3d6d5b27	0.057948258
106	0x3c284414	0.010270137
107	0xbc358f59	-0.01108154
108	0x3cb43d0a	0.022001762
109	0xbc945115	-0.01810507
110	0x3dab792d	0.08372722
111	0x3db5d313	0.0887815
112	0x3d2159e1	0.039392356
113	0xbc32e2b2	-0.010918306
114	0xbd1d01da	-0.038331844
115	0x3d13ad00	0.036053658
116	0x3cbe4491	0.023226054
117	0x3c8ce279	0.017197834
118	0xbda1de11	-0.07903684
119	0x3d5d44f4	0.054020837
120	0x3d0d5c59	0.034511898
121	0x3c9355d8	0.01798527
122	0x3db79af6	0.08965103
123	0x3d2b1748	0.04177025
124	0x3c92d182	0.017922167
125	0x3dabd8ec	0.08390984
126	0xbca55756	-0.020183247
127	0x3d599cd4	0.05312808
128	0xbd02131c	-0.031756505
129	0xbe047632	-0.12935713
130	0xbcac106f	-0.02100393
131	0x3d90429f	0.07043957
132	0x3d267f32	0.040648647
133	0xbc3fff14	-0.01171853
134	0xbd0a95f7	-0.033834424
135	0x3d53f1d8	0.051744312
136	0x3cd63d88	0.026152387
137	0x3c70e878	0.014703862
138	0xbd5fe42d	-0.054660965
139	0x3ce788f9	0.028263556
140	0xbcdd6eea	-0.027030427
141	0xbd222af7	-0.039591756
142	0xbd40aa99	-0.047037695
143	0xbba2e33c	-0.004970936
144	0xbd48e17b	-0.04904316
145	0xbcb0d7d2	-0.021587286
146	0x3c9279b7	0.017880304
147	0x3d05fe01	0.03271294
148	0x3d8414a9	0.06449253
149	0xbce1d7b7	-0.027568681
150	0xbd95fb9a	-0.0732338
151	0x3c8c10ff	0.017097948
152	0xbc8e1e84	-0.017348535
153	0xbb7591ba	-0.0037470893
154	0xbd89dc91	-0.06731523
155	0x3c8a48b2	0.016880367
156	0x3dacac45	0.08431295
157	0x3a876cc5	0.0010332098
158	0x3c927192	0.01787642
159	0x3d6b9660	0.057516456
160	0xbd0c2933	-0.034218978
161	0x3c800cd6	0.01563112
162	0xbc6fb2f8	-0.014630072
163	0xbd24c6de	-0.040228717
164	0x3ce70972	0.028202746
165	0xbe0f6bd1	-0.14005972
166	0xbc340e8b	-0.010989795
167	0xbdd7a560	-0.1052959
168	0xbc9794cf	-0.018503575
169	0xbc2ff03c	-0.010738429
170	0x3c140368	0.009034015
171	0xbcba5532	-0.022745702
172	0xbdad558a	-0.08463581
173	0xbdae2a08	-0.085041106
174	0x3d5840a6	0.05279603
175	0x3d3ad46c	0.045612738
176	0x3d5b9e4e	0.053617768
177	0xbd474783	-0.048652183
178	0x3d10f2ae	0.035387687
179	0xbca21c8c	-0.019789003
180	0x3c1a7fba	0.009429866
181	0xbcc88599	-0.024477767
182	0xbc7ac969	-0.015306809
183	0xbd319854	-0.043358162
184	0xbc83acd9	-0.016073631
185	0xbd5850c8	-0.052811414
186	0xbc65a57b	-0.014016504
187	0xbd1e512f	-0.03865164
188	0x3d2d0bd8	0.042247623
189	0x3c8dd884	0.017315157
190	0x3d77ff94	0.060546473
191	0x3d459e92	0.048246928
192	0x3cfca20c	0.030838989
193	0x3d4e7f2c	0.05041425
194	0xbd1bb49d	-0.038014043
195	0xbce5109a	-0.027962018
196	0xbcb84f74	-0.022498824
197	0x3c51c1ba	0.012802536
198	0xbd80e0fe	-0.06292914
199	0xbd48efb0	-0.04905671
200	0xbcdac7da	-0.026706625
201	0xbc480efd	-0.012210605
202	0x3c1ddfc0	0.009635866
203	0xbdcf50b9	-0.101228185
204	0x3d30a492	0.043125696
205	0x3d6a0837	0.05713674
206	0x3d15f96a	0.036614813
207	0xbd4aecaf	-0.049542125
208	0x3d61b7ee	0.05510705
209	0x3d64b34a	0.055835046
210	0x3bae1251	0.005312242
211	0x3d156934	0.036477283
212	0xbc9bc666	-0.019015502
213	0x3d5b7443	0.053577673
214	0x3d9cb814	0.076522976
215	0x3a7c6d63	0.0009629337
216	0xbcfbb4ff	-0.030725954
217	0xbdaabe4a	-0.08337076
218	0xbd6886a9	-0.056769047
219	0x3bd25490	0.006418772
220	0x3d32a183	0.04361106
221	0xbd8a0a5d	-0.06740258
222	0xbd8a3ef8	-0.067502916
223	0xbd7b97f3	-0.061424207
224	0x3c15e5d7	0.009149036
225	0x3c4faef2	0.012675988
226	0xbd391e88	-0.045195132
227	0xbd11547c	-0.03548096
228	0xbd98939e	-0.07450031
229	0xbc1eb4f7	-0.0096867
230	0x3d4ec1d3	0.050477814
231	0xbcacde22	-0.021102015
232	0xbbb5bcca	-0.005546187
233	0x3d7dcbb9	0.061961863
234	0x3d29b0b3	0.04142828
235	0x3e08ccd9	0.13359393
236	0xbd3e403d	-0.04644798
237	0x3d1e6115	0.038666803
238	0x3cecea3a	0.028920282
239	0x3cffea2d	0.031239593
240	0x3d1dcb13	0.038523745
241	0xbcca144f	-0.024667887
242	0x3d8ff820	0.07029748
243	0x3bc14905	0.005898597
244	0xbd72f4f2	-0.05931563
245	0xbc84a4f7	-0.016191943
246	0xbd38cee5	-0.045119185
247	0xbb2f8d81	-0.0026787224
248	0xbb14ea00	-0.0022722483
249	0x3d104b90	0.035228312
250	0x3d676a35	0.05649777
251	0xbca9ee59	-0.020743536
252	0xbd4ef1ba	-0.050523497
253	0x3cea746b	0.028619966
254	0xbd3d13b6	-0.046161376
255	0xbd71d672	-0.0590424

ConvTransp2D.6.bias f4 [12]
0	0x3d941cf7	0.07232087
1	0x3d839869	0.06425554
2	0x3d2dc025	0.04241957
3	0xbc9b4eb4	-0.018958427
4	0x3cdd0899	0.026981639
5	0xbd5fee1d	-0.054670442
6	0xbd356d9e	-0.044293992
7	0x3d75efdb	0.060043197
8	0x3d16ecde	0.036846988
9	0xbd2caf5e	-0.04215943
10	0x3acde0e6	0.0015707284
11	0xbd1ee306	-0.038790725

ConvTransp2D.7.weight f4 [12]
0	0x3f8725c9	1.0558406
1	0x3f867b0b	1.05063
2	0x3f8126fd	1.0090023
3	0x3f7fe01e	0.9995135
4	0x3f85cedd	1.0453755
5	0x3f89d648	1.0768518
6	0x3f7c5ebe	0.98582065
7	0x3f89eca6	1.0775344
8	0x3f72a907	0.94789165
9	0x3f7752ab	0.96610516
10	0x3f6aad3c	0.91670585
11	0x3f8b1e07	1.0868539

ConvTransp2D.7.bias f4 [12]
0	0x3c3fce0a	0.011706838
1	0xbc9ec146	-0.01937927
2	0x3c740db1	0.014895842
3	0xbc849d24	-0.016188212
4	0x3bebb28c	0.0071929153
5	0x3d14bf1f	0.03631508
6	0x3bf9763d	0.007612972
7	0x3cef3f50	0.029204994
8	0xbd9b6de5	-0.0758932
9	0xbbf7c397	-0.007561158
10	0xbdc26b94	-0.09493175
11	0x3c405213	0.011738318

ConvTransp2D.7.running_mean f4 [12]
0	0xbdae2ab8	-0.08504242
1	0x3e8e84b6	0.27835625
2	0x3e38eeb2	0.18059805
3	0xbda2c593	-0.079478405
4	0x3d910e0b	0.070827566
5	0x3e0f0e1e	0.13970229
6	0x3e079df6	0.13243851
7	0xbcc98842	-0.024601106
8	0x3c18ba3d	0.009321746
9	0xbdbab1d6	-0.09115951
10	0xbe280849	-0.1640941
11	0xbbc936f3	-0.0061405837

ConvTransp2D.7.running_var f4 [12]
0	0x3ddb0702	0.10694696
1	0x3e051552	0.12996414
2	0x3dfe5d41	0.124201305
3	0x3dc3cacf	0.09560167
4	0x3e0e5152	0.13898209
5	0x3e14007a	0.14453307
6	0x3e472b09	0.1945001
7	0x3de854ab	0.11344274
8	0x3dd1c878	0.102433145
9	0x3e624786	0.22097597
10	0x3eda62d6	0.4265353
11	0x3dd28f1c	0.10281202

ConvTransp2D.9.weight f4 [12, 1, 7, 7]
0	0xbe06d4c8	-0.13167107
1	0xbd8c9997	-0.068652324
2	0xbcfa8775	-0.03058217
3	0x3d939e72	0.072079554
4	0xbd313e3d	-0.043272246
5	0xbc233b91	-0.009962932
6	0xbcc39309	-0.023873823
7	0xbe0e824d	-0.13916893
8	0xbe1f3321	-0.15546848
9	0x3d9b5422	0.075844064
10	0xbe14ead5	-0.14542706
11	0x3d0abf80	0.033874035
12	0x3c97514e	0.018471386
13	0x3e06cd65	0.1316429
14	0x3d9e7e1c	0.07738897
15	0x3da391e9	0.079868145
16	0xbdae4ea9	-0.08511097
17	0xbd9c959a	-0.07645722
18	0x3d96902a	0.07351716
19	0x3dd3c965	0.10341147
20	0x3deaddce	0.11468087
21	0xbc0d415d	-0.008621541
22	0x3db48d3d	0.088160016
23	0x3c50e20f	0.012749209
24	0xbda0a233	-0.07843437
25	0xbdad5b3a	-0.08464666
26	0x3dbe5f3e	0.0929551
27	0x3e17eeaa	0.14837137
28	0xbd8d2e1b	-0.068935595
29	0xbdeea77f	-0.11653041
30	0x3df8c8bf	0.12147664
31	0x3d8b4712	0.06800665
32	0x3da1b8c3	0.078965686
33	0x3d544b71	0.05182976
34	0xbdd583a4	-0.10425499
35	0xbd96ea00	-0.07368851
36	0x3daba834	0.083816916
37	0x3d9e5f3a	0.07733007
38	0xbde4dc56	-0.11174838
39	0xbe3e5666	-0.18587646
40	0xbe3bbe72	-0.18334368
41	0xbe1d2e57	-0.15349708
42	0xbe16617a	-0.14685622
43	0x3d800fa4	0.06252983
44	0x3d4128c5	0.04715802
45	0xbe05c1b4	-0.13062173
46	0xbd78a05d	-0.06069981
47	0xbe56db2b	-0.20982043
48	0xbc80a23b	-0.015702358
49	0xbc3acc3c	-0.011401232
50	0x3c4ea740	0.012613118
51	0x3d911c0c	0.07085428
52	0xbd980d00	-0.074243546
53	0x3d1c8e42	0.038221605
54	0xbdfc8a43	-0.12331059
55	0x3d48b0ba	0.048996665
56	0xbda0f441	-0.07859088
57	0x3dcfd8bf	0.10148763
58	0x3c280cbd	0.010256943
59	0x3d82258f	0.0635482
60	0x3d171f1a	0.036894895
61	0xbd7edc57	-0.06222185
62	0xbe2e0e4f	-0.16997646
63	0xbb5dd035	-0.0033846025
64	0x3e00852a	0.12550798
65	0xbd06fad9	-0.03295407
66	0x3d16ea69	0.036844645
67	0xbd93a2d6	-0.07208793
68	0xbe35e698	-0.17763746
69	0xbda9dc88	-0.08294016
70	0x3d4cf3dc	0.05003725
71	0x3e007541	0.12544729
72	0x3ddc1ae9	0.1074732
73	0x3e05bb27	0.13059674
74	0xbbb21315	-0.0054344037
75	0xbdb9eb39	-0.09078068
76	0x3dbe75a7	0.09299784
77	0x3dd13b9c	0.10216448
78	0xbd7eea85	-0.062235374
79	0x3cc258e2	0.023724023
80	0x3db76af0	0.089559436
81	0xbe03f2c7	-0.12885581
82	0x3dbda738	0.0926041
83	0x3dc2cfa1	0.09512258
84	0x3d895362	0.06705357
85	0xbc0d5eae	-0.00862853
86	0xbda67ade	-0.08128904
87	0xbe1ee5cd	-0.1551735
88	0xbc592143	-0.013252559
89	0xbdc34e2b	-0.09536394
90	0x3e364821	0.17800952
91	0x3db45c0c	0.08806619
92	0xbde43bc5	-0.11144213
93	0xbd9bbdb1	-0.0760454
94	0xbdc13fb2	-0.09435977
95	0xbda31a57	-0.07964008
96	0x3df5ae6e	0.119961604
97	0x3d5bbbd8	0.05364594
98	0x3dbc7b95	0.09203259
99	0xbdbe4367	-0.092902
100	0x3d41bb77	0.04729792
101	0xbdb3fc49	-0.08788354
102	0xbe1366dc	-0.14394706
103	0xbd9e3802	-0.077255264
104	0xbdfb1b1a	-0.122610286
105	0x3deaade0	0.11458945
106	0xbda0a935	-0.07844774
107	0xbdb7965d	-0.089642264
108	0xbce1d1ab	-0.027565798
109	0xbe08a892	-0.13345554
110	0x3dc5a5a2	0.096507326
111	0xbd910d91	-0.07082666
112	0xbd8ee2d2	-0.06976856
113	0xbd9fe8a7	-0.07808047
114	0xbcbe5631	-0.023234459
115	0x3dd04493	0.101693295
116	0x3debe28d	0.115178205
117	0xbcdfa253	-0.027299082
118	0x3d8e23b2	0.06940402
119	0xbcf458f0	-0.029827565
120	0x3d9cb5e0	0.076518774
121	0x3d354cb2	0.044262595
122	0x3d91cd44	0.071192294
123	0x3e3588b7	0.17727934
124	0x3c9d3742	0.019191388
125	0x3c1c26a8	0.009530701
126	0xbd95486e	-0.072892055
127	0x3d4d0127	0.050049927
128	0x3e129169	0.14313282
129	0x3df5199f	0.119677775
130	0x3d42eb15	0.047587473
131	0x3e13524e	0.14386865
132	0x3d6232f4	0.055224374
133	0x3d6e51e3	0.058183562
134	0x3e0cc45d	0.13746782
135	0x3e4db025	0.20086725
136	0x3dc62821	0.09675623
137	0xbd8ae7cd	-0.06782494
138	0x3dd7f3c1	0.10544539
139	0x3cc87e19	0.02447419
140	0xbb130f1e	-0.002243943
141	0xbdab0fcc	-0.083526224
142	0x3d99cc1a	0.075096324
143	0x3cbb49ef	0.022862403
144	0xbd586162	-0.052827246
145	0x3d738134	0.05944939
146	0x3dc3560b	0.09537896
147	0xbd87ccd6	-0.06630866
148	0xbcfe877d	-0.031070465
149	0xbde37923	-0.11107089
150	0xbd617c47	-0.05505016
151	0xbdd4db51	-0.10393394
152	0x3e0497c3	0.12948518
153	0xbd01a32e	-0.03164976
154	0xbd80f60a	-0.06296928
155	0xbdafa063	-0.08575513
156	0x3d2c7f79	0.042113755
157	0xbddff3df	-0.109351866
158	0xbce04c1a	-0.027380038
159	0x3da6a530	0.08136976
160	0xbd403d16	-0.046933256
161	0x3dab588d	0.08366499
162	0x3caeb0d2	0.021324549
163	0xbc5f2d15	-0.013621588
164	0xbe16fe45	-0.14745434
165	0xbdece618	-0.115673244
166	0xbdcec44e	-0.10096036
167	0xbe0a8459	-0.13527049
168	0x3d213e31	0.03936595
169	0xbe126711	-0.14297129
170	0x3c06ee7d	0.008235571
171	0x3c2c8186	0.010528928
172	0xbce3f081	-0.027824642
173	0xbe041e0b	-0.12902085
174	0xbe0488b2	-0.1294277
175	0x3e1fed9c	0.15617985
176	0x3ddde1ca	0.108340815
177	0xbe0107df	-0.12600659
178	0xbe457464	-0.19282681
179	0xbc56dcec	-0.013114195
180	0x3cc99934	0.024609186
181	0x3c7fe586	0.0156186875
182	0x3df08db7	0.1174578
183	0x3d83d431	0.06436957
184	0x3b0d9f68	0.0021609906
185	0x3d596b08	0.05308059
186	0x3d8c2581	0.06843091
187	0xbd9f6cd7	-0.077844314
188	0xbd6f2b00	-0.058390617
189	0xbd41f049	-0.047348294
190	0xbd92055c	-0.071299285
191	0xbbe746b8	-0.007057991
192	0xbe12451e	-0.14284179
193	0xbd130194	-0.035890177
194	0xbd2e7462	-0.04259146
195	0x3d7feade	0.062479846
196	0x3d1703cd	0.03686886
197	0xbd595e90	-0.053068697
198	0x3d5401c7	0.051759508
199	0xbc44cbbc	-0.012011465
200	0xbb59621d	-0.0033170052
201	0xbd387ffc	-0.04504393
202	0xbc49613d	-0.01229125
203	0x3db71b2a	0.08940728
204	0xbd900a6a	-0.07033236
205	0x3e109a56	0.14121374
206	0x3da33fff	0.07971191
207	0x3debc458	0.11512059
208	0x3d989cfe	0.07451819
209	0xbcc3ac0a	-0.023885746
210	0xbd4f5f8f	-0.05062824
211	0x3c9ac8c5	0.018894562
212	0xbd65b500	-0.05608082
213	0x3d186da3	0.037213933
214	0xbc559c43	-0.013037744
215	0x3db2a814	0.087234646
216	0xb99f570d	-0.000303917
217	0x3dbaa80d	0.091140844
218	0xbd4bf4dd	-0.049794067
219	0x3d117d3e	0.03551983
220	0x3da429b4	0.08015767
221	0x3ca9ec81	0.020742657
222	0xbe02f483	-0.12788586
223	0xbdfcdf81	-0.123473175
224	0x3dca4f10	0.09878361
225	0xbd097a82	-0.0335641
226	0xbca68352	-0.02032629
227	0x3d2e3b4d	0.042537022
228	0x3d736dbb	0.05943082
229	0xbdb4450b	-0.088022314
230	0x3c979b79	0.018506752
231	0xbde20cfa	-0.11037631
232	0xbd84911b	-0.06472989
233	0xbe2f1d06	-0.17100915
234	0xbde34514	-0.1109716
235	0xbe0d14b1	-0.13777424
236	0xbe130367	-0.14356767
237	0xbc742e3d	-0.014903602
238	0xbb3d8398	-0.0028917547
239	0xbd6d71da	-0.057969905
240	0xbe3c3826	-0.18380794
241	0xbe2d56d1	-0.16927649
242	0x3bfbd669	0.007685472
243	0xbd8ec310	-0.06970799
244	0xbde8e38d	-0.11371527
245	0xbe0a5d52	-0.13512161
246	0xbde4f668	-0.11179811
247	0xbe02bdf2	-0.12767771
248	0xbdd85f36	-0.10565035
249	0xbe2fc635	-0.17165454
250	0x3d048471	0.03235287
251	0x3c22ec89	0.00994409
252	0xbcbbcef2	-0.022925828
253	0xbb32c4ed	-0.0027278021
254	0xbe10c618	-0.14138067
255	0xbe358f27	-0.1773039

embedding.weight f4 [10, 784]
0	0xbf5f4305	-0.8721164
1	0x3d309f4c	0.043120667
2	0xbf6a9b73	-0.91643447
3	0x3f83c784	1.0295262
4	0x3eea5c78	0.45773673
5	0xbe422742	-0.18960288
6	0x4017777b	2.3666675
7	0x3f21a547	0.6314282
8	0x3f0df157	0.5544638
9	0x3f494189	0.78615624
10	0xbfd60266	-1.6719482
11	0xbc31bef1	-0.010848747
12	0xbf154aa7	-0.58317035
13	0x3f0c85e3	0.54891795
14	0x3f94ea26	1.1633956
15	0xbd7a8c3a	-0.061168887
16	0xbf8c6cd3	-1.097071
17	0xbf110b52	-0.566579
18	0x3fa08703	1.2541202
19	0x4018a828	2.3852634
20	0x3f83c4e0	1.0294456
21	0x3e5de1b8	0.21668136
22	0x3f220b9a	0.6329895
23	0xbce72933	-0.028217888
24	0xbf3f79f1	-0.7479544
25	0x40169893	2.3530624
26	0x4016a413	2.3537643
27	0xbf7847a4	-0.96984315
28	0x3f86ee57	1.0541486
29	0xbf1f94d1	-0.6233645
30	0xc04adbb4	-3.1696596
31	0x3fa3ee00	1.2807007
32	0x3f0db506	0.55354345
33	0xbf36c0a3	-0.7138769
34	0xbffd6238	-1.9795599
35	0x3eadbaa3	0.33931455
36	0x3f0a8451	0.5410815
37	0xbc983205	-0.018578539
38	0xbf58af52	-0.8464252
39	0x3f9e5024	1.2368207
40	0x3f04e813	0.5191662
41	0xbffc90a0	-1.9731636
42	0xbfcd88ab	-1.6057333
43	0xbf2cdfcf	-0.67529005
44	0xbe5e68ac	-0.21719617
45	0xc04684f4	-3.1018648
46	0x3f3ea9d6	0.744779
47	0x3f75b12f	0.95973486
48	0x3f3d6501	0.73982245
49	0x3e5b3ec7	0.21410666
50	0xbfc5f3ea	-1.5465062
51	0xbf142c9e	-0.5788058
52	0x3f3fb1a8	0.74880457
53	0x3e0b4941	0.13602163
54	0x3f136921	0.5758229
55	0xbf04be12	-0.51852524
56	0x3fc0357b	1.5016321
57	0xbf0f8403	-0.5606081
58	0xbff5a220	-1.9190102
59	0x3e84f618	0.25969005
60	0x3fb49d3a	1.4110482
61	0xbf441fda	-0.766111
62	0xbf56100e	-0.8361825
63	0x3eda06af	0.42583224
64	0x3f7c6154	0.9858601
65	0xbfb9b7a4	-1.4509168
66	0xbf901688	-1.1256876
67	0x3de7f63d	0.11326263
68	0xbf2b6e99	-0.66965634
69	0xbec554a7	-0.38541147
70	0xbfaf96d8	-1.3717909
71	0xbf57c82f	-0.8428983
72	0x3fef37d0	1.8688908
73	0xbf527e8c	-0.82224345
74	0xbfae69a1	-1.3625985
75	0xbeb33193	-0.3499876
76	0x3f92a138	1.145545
77	0x3e19a712	0.15005139
78	0xbea778b7	-0.32709286
79	0xbe802587	-0.2502863
80	0xbf8f5d31	-1.1200315
81	0xbec2c2c5	-0.38039222
82	0x40066693	2.1000106
83	0x3f6f3171	0.93434817
84	0xbf85a48b	-1.044084
85	0x3f548328	0.8301263
86	0x3f91adf0	1.1381207
87	0x3e9902cd	0.2988495
88	0x3df928bf	0.12165975
89	0x3fc363a5	1.5264784
90	0xbf9d9af6	-1.2312915
91	0x3e903630	0.28166342
92	0x3f930d0e	1.1488359
93	0x3f739017	0.9514174
94	0x40073e77	2.1131876
95	0xbf0eca9f	-0.55777925
96	0xbf219b32	-0.63127434
97	0xbfcdc7f1	-1.6076642
98	0xbee43178	-0.44568992
99	0xbb1419a0	-0.0022598282
100	0x3f267e6f	0.6503667
101	0xbfc20948	-1.5159082
102	0x3eeb50bf	0.45960042
103	0xbfab250a	-1.3370678
104	0xbf89aada	-1.0755265
105	0xbeca9874	-0.39569438
106	0xbe980669	-0.2969239
107	0x40189f2d	2.3847153
108	0xbf60fd98	-0.87886953
109	0x3ecb833f	0.3974857
110	0xbfc6223b	-1.5479196
111	0xc036267c	-2.846099
112	0x3f027ad0	0.50968647
113	0xbf93f1bc	-1.1558146
114	0x3fbdb7cf	1.4821719
115	0x3e2dff24	0.1699186
116	0xbfe4ec30	-1.7884579
117	0xbe1c2473	-0.1524828
118	0x3fea0fd7	1.8286084
119	0x402f106e	2.7353778
120	0x3eefc621	0.46830848
121	0x3f5ba1a2	0.8579351
122	0x3f9b44fa	1.2130425
123	0xc0137f1e	-2.3046336
124	0xbe9428ab	-0.28937277
125	0xbf36637d	-0.7124556
126	0xbf073911	-0.5282145
127	0x3f98ab15	1.192721
128	0xbf119c02	-0.56878674
129	0xbe14c21f	-0.14527176
130	0xbf4204f5	-0.75788814
131	0x3ebf33ba	0.37344152
132	0xbf0d1e1c	-0.5512407
133	0x3e96dfce	0.29467624
134	0x3f89695c	1.0735278
135	0xbf8f0c5a	-1.1175644
136	0xbf6936e2	-0.9109937
137	0x3ec8733d	0.3915042
138	0xbee86033	-0.45385894
139	0x400168e1	2.0220263
140	0x3ef9c486	0.48782748
141	0xbe8880cd	-0.26660767
142	0xbfcd0dee	-1.6019876
143	0xbf59cbbb	-0.85076493
144	0x3f5ad107	0.854752
145	0xbe14df4a	-0.14538303
146	0x3fa7f6eb	1.3122228
147	0x3f8c12cf	1.094324
148	0xbf92727f	-1.1441191
149	0xbfc68a04	-1.5510869
150	0x3ec1e0b4	0.37866747
151	0x4007a161	2.1192248
152	0x3e08d739	0.13363351
153	0xbfe0cd2a	-1.7562611
154	0xbf60fb05	-0.87883025
155	0xbf848fba	-1.0356362
156	0x3f80e985	1.0071265
157	0x3f7fbb1d	0.9989489
158	0x3f23cd62	0.63985264
159	0x3fa10694	1.2580132
160	0xbe6b5fad	-0.22985716
161	0x3f89129c	1.0708804
162	0xbf4562b7	-0.7710375
163	0xbf03d9bc	-0.5150411
164	0xbfe5169e	-1.7897527
165	0xbfab7bfd	-1.3397213
166	0x3e3167ad	0.17324705
167	0xba628719	-0.0008641347
168	0x3f2ce6b8	0.6753955
169	0xbdd77285	-0.1051989
170	0x3ddd398c	0.10801992
171	0xbeff8424	-0.49905503
172	0xbde65648	-0.112469256
173	0xbd815190	-0.06314385
174	0xbd6e272c	-0.058142826
175	0xbed5b5ed	-0.4174036
176	0x3f0dd083	0.5539629
177	0x3f80bee9	1.0058261
178	0xc01bd4f9	-2.4348738
179	0xbef588c0	-0.47955894
180	0xbfb3bf4c	-1.4042754
181	0xbf89160e	-1.0709856
182	0xbfeee257	-1.8662823
183	0x3faaa8bf	1.3332747
184	0xbf712416	-0.9419569
185	0xbf4f1f15	-0.809068
186	0xbf8ad297	-1.0845517
187	0x3fba29d6	1.4544017
188	0x3d54bcf3	0.05193801
189	0xbec69fb7	-0.38793728
190	0x3f8fa654	1.1222634
191	0xbf2c69dc	-0.6734903
192	0xbf91def3	-1.1396164
193	0xbfbcb5bf	-1.4742965
194	0xbee2ec8b	-0.44321093
195	0xbef72cd5	-0.48276392
196	0x3fd00e59	1.6254379
197	0xbeef6f2f	-0.46764514
198	0x3ecbec93	0.3982893
199	0xbf00c728	-0.5030389
200	0xc02346b4	-2.5511904
201	0x3e7f4a46	0.24930677
202	0xbffe9254	-1.9888406
203	0xbf87c49b	-1.0606874
204	0xbf1b142e	-0.60577667
205	0xbfaf0d2c	-1.3675895
206	0xbf777c12	-0.9667369
207	0xc0231db6	-2.5486884
208	0x3fbdb494	1.4820733
209	0x3f3facc2	0.7487298
210	0x40230975	2.5474522
211	0x3d19b7f4	0.037528947
212	0xbe1515a2	-0.14559034
213	0xc0158a01	-2.336548
214	0x3f948b25	1.1604964
215	0x3f9b9df0	1.2157574
216	0xbfd5a66b	-1.6691412
217	0x400a1faf	2.1581838
218	0xbe8b28b8	-0.27179503
219	0xbfa0952a	-1.2545521
220	0x3f8170a0	1.0112495
221	0xbf7cac32	-0.9870025
222	0x3f0e1958	0.5550742
223	0xbe2b8673	-0.16750507
224	0x3f177474	0.5916207
225	0x3fc163cb	1.5108579
226	0xbf7683dc	-0.9629495
227	0xbf025ae9	-0.5091997
228	0x3f845e5e	1.0341299
229	0x3f6a153b	0.91438645
230	0xbe237fa7	-0.15966664
231	0xbe65c4be	-0.22438332
232	0xbf401b28	-0.7504144
233	0xbf088128	-0.53322077
234	0xbee081e8	-0.4384911
235	0xbfb454bb	-1.4088358
236	0xbf5d8a09	-0.8653875
237	0xbdcc983d	-0.09989975
238	0xbe1aed4a	-0.15129581
239	0xbf6c04df	-0.9219493
240	0x3e8d2ae1	0.27571777
241	0xbf609dad	-0.87740594
242	0x3e75c88d	0.24002285
243	0x3f13ce8f	0.5773706
244	0x401aff58	2.421835
245	0xbfa3d862	-1.280041
246	0xbfc5d2c3	-1.5454944
247	0xbf8d229b	-1.1026186
248	0xbf730b98	-0.94939566
249	0xbf54efab	-0.83178204
250	0x3fc6a0a8	1.5517778
251	0xbfa636f9	-1.2985526
252	0xbf9e45b1	-1.2365018
253	0xbe9e3509	-0.30899838
254	0xbfdecaac	-1.74056
255	0xbe1268c3	-0.14297776
